saved_models/cnn_model.pt (torch, 138392 bytes, 8 tensors)

conv1.weight f4 [64, 3, 3]
0.12065482 -0.17344804 -0.18181899 -0.3195403 -0.16852862 0.19253115 0.04343615 0.16687639
0.039009117 0.04158024 -0.17941202 0.2530343 0.14346205 0.16146457 -0.2665457 -0.00078233646
-0.010316192 0.31629807 0.11413134 0.12688074 -0.18421082 0.23447052 0.2640088 0.31384793
0.22543481 -0.31024617 -0.34704912 -0.297729 0.240926 0.20700763 -0.076265484 -0.19383006
0.06583598 0.24197932 -0.114852324 0.07060777 0.25048283 -0.008869122 0.17546652 -0.19395451
-0.26286057 -0.0015873113 -0.14772353 0.30285773 0.28370744 -0.114081115 0.19772552 0.07001175
-0.25894424 -0.24417002 0.067493536 -0.23919134 0.21450457 0.16037191 -0.21630819 0.2480905
0.26055673 0.15721485 -0.24134652 0.08698466 0.051729523 0.21211489 0.18381052 0.088203646
0.043839682 -0.25610012 -0.18695968 -0.28870642 0.22644056 -0.021013206 0.23959565 0.25217414
0.0915562 0.119638674 -0.12221023 0.03487037 0.05596262 0.1282238 -0.019059677 -0.039381776
-0.024060294 -0.27053085 0.18064569 0.18261877 -0.33002174 0.19956249 -0.28072223 0.15299466
-0.29910082 -0.2165566 0.12330601 0.0594001 -0.16466264 0.10605678 0.052116454 -0.17937948
-0.19233486 -0.12242073 0.23903927 -0.33541995 -0.10676176 -0.10209805 -0.14035706 -0.13663311
0.202403 -0.15047231 0.26464638 0.09219323 0.09007438 -0.3385226 0.113809235 0.22377388
-0.05752434 -0.097171105 -0.24466066 -0.28544676 0.05102229 -0.11218783 -0.064286865 0.14024259
0.15136385 -0.03535175 0.3362219 -0.08488614 -0.27821517 -0.35680372 -0.22449186 0.1668449
0.21715781 -0.3581747 0.29736322 -0.2317047 -0.1266702 -0.2344409 -0.2067714 -0.071942456
-0.16688734 0.2709988 0.0700033 0.087180525 -0.27822143 0.2635735 -0.22628048 0.33158916
-0.11330178 -0.22154841 -0.0042145913 -0.12030997 0.09200752 -0.33828065 -0.06289521 -0.056020573
0.12196946 0.15987659 0.18734041 0.38273042 0.17854804 -0.03815766 -0.07964816 -0.23009434
-0.27205515 -0.25974545 0.04516019 -0.033264123 -0.10525923 0.31257448 0.2256917 -0.040531762
-0.19838533 0.00038416238 -0.0128313955 0.30898798 -0.0895645 -0.09626248 -0.1613317 -0.015119385
-0.021326864 0.20526858 0.01761038 -0.27030525 -0.06829852 -0.13053045 -0.13828889 -0.07402609
0.25579107 -0.3317393 0.038417038 0.12440793 -0.28938732 -0.049338244 -0.22834256 -0.21753849
0.17693958 -0.3146542 -0.1413671 -0.310085 -0.08762658 0.33583218 -0.061371204 0.18857053
-0.15267003 -0.21893129 -0.028272841 -0.1575363 0.14644168 0.15830673 0.2727652 -0.02640874
0.19944023 -0.31955174 -0.008181059 0.21317947 -0.23318118 0.29261726 0.2315966 -0.34226903
0.3938284 -0.13717166 0.03877617 0.03428354 -0.052553855 -0.26092833 0.18724708 -0.19982068
0.1022524 0.17387198 0.16724902 0.11941461 -0.007555682 -0.29480997 -0.2605181 -0.06930341
-0.24536832 0.35674667 0.18532075 0.1067246 -0.0034580952 0.22774717 -0.1356171 -0.021379493
-0.3305424 -0.2502973 -0.06594259 0.1683218 -0.2649745 0.19653423 0.0824614 -0.12715997
0.27925056 0.27733243 -0.18268709 0.107696995 -0.3388271 0.21061334 -0.20987919 0.20887706
00000000: e019 f73d 5d9c 31be c22e 3abe c99a a3be
00000010: c492 2cbe e326 453e 1bea 313d a5e1 2a3e
00000020: 06c8 1f3d 0b50 2a3d c9b7 37be b68d 813e
00000030: b7e7 123e f856 253e ae78 88be b615 4dba
00000040: 3f05 29bc d2f1 a13e b1bd e93d 06ed 013e
00000050: c3a1 3cbe 0a19 703e 292c 873e adb0 a03e
00000060: 62d8 663e 96d8 9ebe 6cb0 b1be ef6f 98be
00000070: 4eb5 763e cff9 533e 1431 9cbd 637b 46be
00000080: 04d5 863d 6dc9 773e b237 ebbd ce9a 903d
00000090: 493f 803e cb4f 11bc 7fad 333e 039c 46be
000000a0: a995 86be 540d d0ba d644 17be 2b10 9b3e
000000b0: 1a42 913e 5ca3 e9bd 8f78 4a3e 5262 8f3d
000000c0: 5794 84be b507 7abe 0d3a 8a3d 93ee 74be
000000d0: 16a7 5b3e 8938 243e e57f 5dbe 700b 7e3e
000000e0: b167 853e eefc 203e 8b23 77be 0325 b23d
000000f0: 56e2 533d a534 593e d338 3c3e 1da4 b43d
00000100: 3d91 333d 8e1f 83be 5c72 3fbe 54d1 93be
00000110: 09e0 673e e323 acbc 9058 753e f81c 813e
00000120: d181 bb3d 1f05 f53d 5b49 fabd 3cd4 0e3d
00000130: 0f39 653d 1a4d 033e 0a23 9cbc c94e 21bd
00000140: 181a c5bc 0583 8abe 2ffb 383e 6a00 3b3e
00000150: 9cf8 a8be 1c5a 4c3e d3ba 8fbe a2aa 1c3e
00000160: be23 99be 03c1 5dbe dd87 fc3d 854d 733d
00000170: 539d 28be 4c34 d93d 1078 553d 41af 37be
00000180: 6ef3 44be b8b7 fabd b6c6 743e 2abc abbe
00000190: e9a5 dabd c818 d1bd c3b9 0fbe 8de9 0bbe
000001a0: bb42 4f3e 6a15 1abe bb7f 873e cecf bc3d
000001b0: eb78 b83d d652 adbe d114 e93d fb24 653e
000001c0: a49e 6bbd a501 c7bd 5388 7abe 1426 92be
000001d0: c0fc 503d bcc2 e5bd d5a8 83bd c19b 0f3e
000001e0: 20ff 1a3e ffcc 10bd 4725 ac3e c9d8 adbd
000001f0: 3872 8ebe faae b6be 32e1 65be 64d9 2a3e
00000200: 9e5e 5e3e ad62 b7be fe3f 983e ff43 6dbe
00000210: d5b5 01be 4611 70be e2bb 53be 9156 93bd
00000220: 84e4 2abe 5bc0 8a3e e45d 8f3d b48b b23d
00000230: 0a73 8ebe 1bf3 863e 12b6 67be 0ec6 a93e
00000240: c30a e8bd 96dd 62be 8e1a 8abb 1365 f6bd
00000250: 706e bc3d 1f33 adbe 34cf 80bd d475 65bd
00000260: 20cb f93d b0b6 233e 2ad6 3f3e 3ef5 c33e
00000270: 4cd5 363e 354b 1cbd 931e a3bd da9d 6bbe
00000280: d04a 8bbe 5bfd 84be e4f9 383d f63f 08bd
00000290: 2792 d7bd c309 a03e ba1b 673e a204 26bd
000002a0: 8625 4bbe 6769 c939 c63a 52bc ac33 9e3e
000002b0: 986d b7bd 4325 c5bd 2334 25be 4cb7 77bc
000002c0: adb5 aebc ed31 523e a543 903c 7365 8abe
000002d0: 18e0 8bbd c6a9 05be 9a9b 0dbe fe9a 97bd
000002e0: 0cf7 823e bcd9 a9be 2f5b 1d3d 96c9 fe3d
000002f0: 932a 94be e616 4abd a2d2 69be 69c2 5ebe
00000300: a62f 353e 5b1a a1be 89c2 10be 76c3 9ebe
00000310: 9075 b3bd 32f2 ab3e 5f60 7bbd a218 413e
00000320: 8855 1cbe 862f 60be 729c e7bc 3251 21be
00000330: cff4 153e 291b 223e e1a7 8b3e 2457 d8bc
00000340: 0f3a 4c3e 499c a3be d909 06bc b84b 5a3e
00000350: 0cc7 6ebe eed1 953e a927 6d3e e33d afbe
00000360: e0a3 c93e ba76 0cbe c3d3 1e3d e66c 0c3d
00000370: b642 57bd 6698 85be b3bd 3f3e cb9d 4cbe
00000380: b569 d13d 7f0b 323e 5443 2b3e a68f f43d
00000390: a895 f7bb 55f1 96be a162 85be f2ee 8dbd
000003a0: d541 7bbe 80a7 b63e b9c4 3d3e 6d92 da3d
000003b0: 36a1 62bb 8e36 693e 36df 0abe 0c24 afbc
000003c0: da3c a9be f826 80be e90c 87bd 8d5c 2c3e
000003d0: bdaa 87be 4540 493e 86e1 a83d 3936 02be
000003e0: eef9 8e3e 84fe 8d3e 5312 3bbe 3e90 dc3d
000003f0: bf7a adbe 06ab 573e 92ea 56be dee3 553e

conv1.bias f4 [64]
-0.1363946 0.27651 -0.023981748 -0.14083119 -0.15270728 -0.19006763 0.23469573 -0.054586176
0.092363514 0.30738363 -0.030973397 0.2748759 0.09980967 -0.10140634 0.12590994 -0.16836423
0.1722577 -0.29705286 -0.09256832 -0.13896425 0.30456987 -0.07168866 0.19389938 0.26038057
-0.19047193 -0.02881279 0.29720563 -0.23969117 0.028147481 -0.19849302 -0.26046166 0.14102165
-0.22109827 -0.25043836 -0.047252342 -0.08420287 0.123390175 -0.17992158 -0.22197162 0.111938775
-0.21199527 0.043125074 -0.14701852 -0.12830426 -0.23066244 -0.19110006 0.21594013 -0.10171926
-0.10245043 -0.035459325 0.17558871 0.19428506 0.09399554 0.18451983 0.19437374 -0.016914928
-0.23985593 0.24998538 -0.21870387 0.13486798 0.036674578 0.19630535 0.19869423 -0.13032065
00000000: 07ab 0bbe b892 8d3e 5f75 c4bc 0d36 10be
00000010: 4c5f 1cbe 17a1 42be 1454 703e c195 5fbd
00000020: 1529 bd3d 6361 9d3e ecbb fdbc 89bc 8c3e
00000030: 0369 cc3d 21ae cfbd 89ee 003e ac67 2cbe
00000040: 5364 303e 5017 98be 7694 bdbd a54c 0ebe
00000050: 95f0 9b3e 81d1 92bd 8f8d 463e 9a50 853e
00000060: 130b 43be cd08 ecbc 562b 983e 9a71 75be
00000070: 8c95 e63c c141 4bbe 3b5b 85be fb67 103e
00000080: 9667 62be 7539 80be ac8b 41bd 8e72 acbd
00000090: fdb3 fc3d 5d3d 38be 874c 63be 2840 e53d
000000a0: 4a15 59be eba3 303d 068c 16be 3162 03be
000000b0: c632 6cbe bcaf 43be 691f 5d3e 3052 d0bd
000000c0: 88d1 d1bd cc3d 11bd 87cd 333e aaf2 463e
000000d0: bc80 c03d c4f2 3c3e e909 473e 2d91 8abc
000000e0: cb9c 75be 2bfc 7f3e e8f3 5fbe d51a 0a3e
000000f0: 1538 163d 4504 493e 8076 4b3e c772 05be

conv2.weight f4 [128, 64, 3]
-0.07258829 0.10815908 -0.08793485 0.018006165 0.07154464 -0.018669603 -0.015167035 -0.0869184
-0.024527749 -0.012018877 -0.07537699 -0.100157045 -0.00057186605 0.016724579 -0.04293115 -0.046860084
0.06586524 0.009695564 -0.058113556 0.01917661 -0.039145038 0.009993794 0.034071494 -0.10555003
0.027383275 -0.004808105 -0.022994407 -0.09673968 -0.025144305 0.0006860802 0.075598165 -0.017677005
-0.003563103 -0.061874595 0.066189125 0.001396621 0.020179406 0.055991214 -0.018153729 0.026039194
-0.025794089 -0.060643613 -0.04031124 0.035603832 -0.025135279 -0.045779403 -0.06263427 -0.017030803
-0.0066673933 0.052901644 0.07753666 -0.0040246425 -0.08297439 0.073781215 0.02628007 -0.032534298
0.07132838 0.03478977 -0.06924859 -0.045128025 -0.06713233 -0.07339734 0.053282086 -0.03329744
-0.018324861 -0.037578396 -0.0026599292 0.007130811 -0.065184936 -0.098724134 -0.08436109 0.017028067
0.016727438 -0.052756496 0.02006994 0.124149114 -0.11570138 -0.020139359 -0.052111324 -0.03236455
-0.013193742 0.06162151 -0.057566453 -0.022474198 -0.018701779 0.0764181 -0.034343734 -0.0676303
0.004435176 -0.05024916 0.020114781 0.078604706 -0.09335543 -0.023264585 -0.067157686 -0.038402483
0.079100505 -0.054809596 0.0010482537 0.064753264 -0.021878453 -0.03652897 -0.026868882 -0.07447257
0.058619186 -0.03978809 -0.032937344 0.028275723 0.07680804 -0.107617855 0.069101684 0.009525343
-0.051634956 0.010860806 0.08429019 0.016569423 -0.03491696 0.0040987395 0.034307007 0.058039866
-0.035281383 -0.048483815 -0.058117595 0.024236273 -0.038794354 0.009038134 -0.06487574 0.06527528
-0.053295165 0.06797116 0.018651113 -0.019311799 0.021759054 -0.01756951 0.07399402 -0.002277622
-0.06780015 0.05559973 -0.015334964 0.0031779201 0.025880788 -0.067295045 0.057288613 0.00258507
-0.083570585 0.0030886314 -0.037285067 0.010648313 -0.029423287 -0.009274551 0.0082561355 -0.011864086
0.017733876 -0.023877347 -0.0064042634 -0.00037073717 0.008257467 0.0035486089 0.05019436 0.028765997
-0.019293522 -0.043452706 0.056879226 0.048801854 -0.15228365 -0.03270113 -0.044200443 0.13862425
-0.06543725 0.012055685 -0.009431338 -0.104485676 0.025056329 -0.03794939 0.02655761 -0.048955537
0.029226154 -0.08712265 0.03820445 0.04514616 -0.047519505 -0.03433392 0.024116544 0.08127903
-0.06760464 0.019332202 -0.031665217 0.019065624 -0.027618578 0.029116193 -0.04990152 -0.05771372
-0.038172018 -0.044361398 0.030906023 -0.0010901218 -0.077320166 0.009360923 -0.028582731 -0.08254999
-0.07671763 0.026950492 0.030080179 -0.023811085 -0.0149533525 -0.028316628 0.06471496 0.008725069
0.044334065 -0.058079887 -0.07609642 -0.05081028 -0.049431425 -0.019520272 -0.021375775 -0.05852708
0.0014167551 0.029216312 0.003261979 -0.02894618 -0.037866905 0.057309154 -0.0069992505 -0.03267862
0.038565822 0.0010500038 -0.046308313 0.004872682 -0.0117764715 0.0011537519 -0.083991684 -0.005051132
0.03346921 -0.0055191442 -0.03254275 0.0003210314 0.0059632906 -0.026244318 -0.013480829 0.034793984
0.04739639 0.035399523 0.010229365 -0.04414508 0.047657005 -0.040104553 -0.004836363 0.020925809
-0.094827905 -0.048441555 0.051305875 -0.07066416 -0.029882167 -0.052930903 0.018831847 0.03172665
00000000: 2ba9 94bd 8282 dd3d 3017 b4bd aa81 933c
00000010: ff85 923d fff0 98bc 287f 78bc 4602 b2bd
00000020: 6bee c8bc d3ea 44bc 405f 9abd 231f cdbd
00000030: 48e9 15ba fc01 893c 93d8 2fbd 5cf0 3fbd
00000040: 5be4 863d 25da 1e3c 7b08 6ebd 4418 9d3c
00000050: 8c56 20bd 03bd 233c 8d8e 0b3d 9d2a d8bd
00000060: e452 e03c 4f8d 9dbb c45e bcbc 741f c6bd
00000070: 6efb cdbc 10da 333a 36d3 9a3d 5ecf 90bc
00000080: f382 69bb 3770 7dbd 2a8e 873d d30e b73a
00000090: 484f a53c 0b57 653d 21b7 94bc 2650 d53c
000000a0: 204e d3bc 7065 78bd 661d 25bd 53d5 113d
000000b0: 80e8 cdbc 2f83 3bbd 6546 80bd 2f84 8bbc
000000c0: 267a dabb 65af 583d 8acb 9e3d 26e1 83bb
000000d0: 7aee a9bd 9b1a 973d 4d49 d73c af42 05bd
000000e0: 9d14 923d b87f 0e3d 34d2 8dbd 2ad8 38bd
000000f0: ad7c 89bd 5851 96bd 513e 5a3d e562 08bd
00000100: 051e 96bc ceeb 19bd 3552 2ebb 94a9 e93b
00000110: ae7f 85bd e12f cabd 82c5 acbd 727e 8b3c
00000120: fb07 893c 3217 58bd b769 a43c e441 fe3d
00000130: d8f4 ecbd 4cfb a4bc af72 55bd b190 04bd
00000140: 912a 58bc d666 7c3d cdca 6bbd cf1b b8bc
00000150: 7934 99bc 1881 9c3d 04ac 0cbd c181 8abd
00000160: f454 913b 10d2 4dbd c1c7 a43c 81fb a03d
00000170: 2231 bfbd 5f95 bebc f889 89bd ec4b 1dbd
00000180: 72ff a13d 0780 60bd 8f65 893a 5c9d 843d
00000190: 713a b3bc 679f 15bd 211c dcbc 1385 98bd
000001a0: ac1a 703d d6f8 22bd 4fe9 06bd 7da2 e73c
000001b0: 894d 9d3d c066 dcbd 2f85 8d3d 2f10 1c3c
000001c0: 2d7f 53bd 86f1 313c 56a0 ac3d 99bc 873c
000001d0: 1605 0fbd b84e 863b 8185 0c3d 36bb 6d3d
000001e0: 3683 10bd f796 46bd b70c 6ebd 268b c63c
000001f0: d4e6 1ebd ae14 143c 92dd 84bd 0caf 853d
00000200: 084c 5abd 7734 8b3d 38ca 983c c733 9ebc
00000210: 0b40 b23c efed 8fbc 2d8a 973d 2844 15bb
00000220: ceda 8abd 8bbc 633d 803f 7bbc a744 503b
00000230: f203 d43c fcd1 89bd 77a7 6a3d 476a 293b
00000240: 0e27 abbd a36a 4a3b 3ab8 18bd 4376 2e3c
00000250: 1b09 f1bc 49f4 17bc be44 073c 9561 42bc
00000260: a246 913c 6d9a c3bc dbda d1bb 805f c2b9
00000270: 544a 073c c78f 683b 9a98 4d3d aba6 eb3c
00000280: 730d 9ebc 77fb 31bd 31fa 683d 74e4 473d
00000290: 3ff0 1bbe 9ff1 05bd 860b 35bd 84f3 0d3e
000002a0: f703 86bd 3585 453c e685 1abc 96fc d5bd
000002b0: ee42 cd3c d270 1bbd 588f d93c 9a85 48bd
000002c0: b06b ef3c 5c6d b2bd 457c 1c3d 2eeb 383d
000002d0: d0a3 42bd b9a1 0cbd 0f90 c53c 9f75 a63d
000002e0: 4d74 8abd 915e 9e3c 63b3 01bd 832f 9c3c
000002f0: 5b40 e2bc 1585 ee3c 8965 4cbd 3965 6cbd
00000300: 435a 1cbd 4cb4 35bd a12e fd3c 6be2 8eba
00000310: 095a 9ebd 8f5e 193c 5526 eabc f80f a9bd
00000320: 221e 9dbd 47c7 dc3c b56a f63c 770f c3bc
00000330: e8fe 74bc 46f8 e7bc 4789 843d 98f3 0e3c
00000340: a397 353d 2de5 6dbd 71d8 9bbd 711e 50bd
00000350: 9b78 4abd fae8 9fbc 401c afbc 17ba 6fbd
00000360: 6ab2 b93a 0c57 ef3c edc6 553b 8a20 edbc
00000370: 541a 1bbd 01bd 6a3d f859 e5bb 04da 05bd
00000380: 32f7 1d3d 48a0 893a c9ad 3dbd 05ab 9f3b
00000390: 1af2 40bc 7d39 973a d503 acbd f783 a5bb
000003a0: 0317 093d f0d9 b4bb 8c4b 05bd 1b50 a839
000003b0: b567 c33b 53fe d6bc b2de 5cbc 2384 0e3d
000003c0: b822 423d 17ff 103d 1199 273c 79d1 34bd
000003d0: fe33 433d ac44 24bd 5a7a 9ebb 9a6c ab3c
000003e0: 2235 c2bd a76a 46bd 1c26 523d 5fb8 90bd
000003f0: 72cb f4bc 13ce 58bd 3f45 9a3c cef3 013d

conv2.bias f4 [128]
0.011326389 0.005190056 0.017356332 0.025885232 -0.035459824 -0.07345207 0.06541263 0.0017079302
-0.027100999 0.017056176 -0.014636019 0.047667734 0.034268957 -0.068789996 -0.08026937 0.047261182
-0.074306905 -0.071754806 -0.02249833 0.040589027 -0.01012646 -0.011249659 -0.07108797 0.060639117
-0.061951645 0.022165164 -0.04701148 -0.041806564 0.028038757 0.052185826 -0.009593739 -0.028459417
-0.0005677295 -0.0641778 0.059993498 -0.030461734 0.041228183 0.066184044 -0.056120202 -0.041320518
-0.06378314 -0.019242425 -0.07106734 0.013023794 0.054275833 -0.053653166 0.022007981 0.021401841
0.049951445 0.022632284 0.009066825 -0.022645023 -0.029951233 -0.07316236 0.026617123 -0.048374776
-0.0032935897 -0.05756674 -0.013920055 0.061267667 -0.061999187 -0.02079138 -0.041306566 0.030881597
0.023704195 0.05528758 -0.030071916 0.044457514 0.016378613 0.006772702 0.06773291 0.061551
-0.0032876886 0.031237125 -0.0016427621 0.028577177 0.0150845 -0.049856342 0.017853362 -0.012746476
-0.015773721 0.061398897 -0.02294859 -0.07600038 -0.012448884 -0.013679395 0.05699741 0.03255232
0.027785879 -0.025101956 -0.021592937 0.0054948567 -0.0592932 -0.017755829 0.05208758 -0.027493306
0.005570402 -0.003460478 -0.047936574 -0.04634448 -0.012785646 0.052475743 -0.0030281162 -0.07114635
-0.015513639 0.021396153 0.010602438 0.01156043 0.044393655 0.031234462 -0.075298674 0.02303841
-0.015854511 0.051963937 0.046228915 0.00680424 -0.073549315 0.06208649 -0.02424784 -0.022667209
-0.069415316 -0.06929104 0.0046513393 -0.071616024 -0.043769326 -0.004255429 -0.05399844 -0.044020448
00000000: 5292 393c 5811 aa3b de2e 8e3c 440d d43c
00000010: 523e 11bd 0a6e 96bd 0ff7 853d a1dc df3a
00000020: ea02 debc 65b9 8b3c eacb 6fbc 3e3f 433d
00000030: 9b5d 0c3d c5e1 8cbd 4464 a4bd f194 413d
00000040: 382e 98bd 2ff4 92bd 6b4e b8bc ae40 263d
00000050: 74e9 25bc 7d50 38bc 9296 91bd b960 783d
00000060: 02c1 7dbd b893 b53c 1c8f 40bd 5c3d 2bbd
00000070: 89b1 e53c cec0 553d 0f2f 1dbc b923 e9bc
00000080: afd3 14ba a76f 83bd bebb 753d e38a f9bc
00000090: e2de 283d 808b 873d 4cde 65bd b43f 29bd
000000a0: bca0 82bd 4aa2 9dbc c18b 91bd c061 553c
000000b0: 5650 5e3d 6cc3 5bbd 154a b43c ea52 af3c
000000c0: e399 4c3d 5767 b93c 058d 143c 0e82 b9bc
000000d0: 4a5c f5bc 26d6 95bd 270c da3c a124 46bd
000000e0: 44d9 57bb 1acb 6bbd f110 64bc cef3 7a3d
000000f0: dcf2 7dbd af52 aabc 1331 29bd 67fb fc3c
00000100: 4d2f c23c 3b75 623d 6159 f6bc 1519 363d
00000110: 712c 863c 8bed dd3b 8db7 8a3d e71c 7c3d
00000120: 4376 57bb 00e5 ff3c f351 d7ba af1a ea3c
00000130: fb24 773c 2a36 4cbd 3741 923c 98d6 50bc
00000140: e437 81bc 697d 7b3d aefe bbbc 16a6 9bbd
00000150: 67f6 4bbc 8b1f 60bc 1e76 693d 9555 053d
00000160: 369f e33c 9ea2 cdbc ace3 b0bc 330e b43b
00000170: 6ddd 72bd ac74 91bc c959 553d a439 e1bc
00000180: eb87 b63b 30c9 62bb 2459 44bd b6d3 3dbd
00000190: e37a 51bc cef0 563d 5c73 46bb 2db5 91bd
000001a0: eb2c 7ebc fc46 af3c d9b5 2d3c f567 3d3c
000001b0: 1fd6 353d 6adf ff3c 3136 9abd 0cbb bc3c
000001c0: 52e1 81bc 23d8 543d 885a 3d3d 1af6 de3b
000001d0: 06a1 96bd 674e 7e3d 68a3 c6bc 95b0 b9bc
000001e0: 9e29 8ebd 76e8 8dbd 436a 983b 6cab 92bd
000001f0: 7747 33bd 2071 8bbb 782d 5dbd c94e 34bd

fc1.weight f4 [64, 128]
0.04978842 0.009661019 0.050856013 -0.09065861 0.02152574 0.06016566 0.0062660263 -0.056041706
0.010589953 0.08295902 -0.061484363 -0.039184857 0.08896477 0.012859675 -0.059075065 0.038068313
0.0032251894 0.0028926411 0.015294443 -0.03430999 -0.0022274836 0.03758238 -0.02615923 -0.078004085
0.057224758 0.053023808 -0.013162257 -0.06252777 -0.069469534 -0.07347516 -0.032376777 0.042206474
-0.034917276 0.021197729 0.08239984 0.010798986 -0.06894824 -0.039565776 -0.08938672 0.018429665
0.00131802 0.0195771 0.073614694 -0.003149556 -0.046147224 0.05553821 -0.04821106 0.009833916
0.052746084 -0.05447703 -0.09389813 -0.051797424 0.005151691 0.06638997 0.025170013 0.037703726
-0.07875666 0.06535431 0.010059517 0.022992834 -0.005987811 0.034249827 -0.03137382 -0.010438489
-0.050908465 0.054616638 -0.038169995 -0.09004546 0.034147598 -0.032223385 -0.07946927 0.048874244
0.079710916 -0.09001935 0.05853952 0.062280405 -0.06870848 0.06983594 0.034509018 -0.08061489
-0.033508644 0.051817838 -0.0034355856 0.001051536 -0.017477311 -0.029767824 -0.09291595 0.04034076
0.03164536 0.015008737 -0.08571279 0.069167994 -0.056277182 0.034448285 -0.020753361 0.06451136
0.051721938 -0.018625742 -0.028181517 0.025536798 0.077697486 0.0033045914 -0.015489068 -0.055819687
-0.055274297 0.0478104 0.05891274 -0.026516724 0.05106402 -0.059413116 -0.040792823 -0.035178773
-0.05121752 -0.0048944904 -0.07895807 0.0571794 0.07890108 -0.09939318 0.058667403 0.03346072
0.04793668 0.010384538 0.07059864 0.019831704 -0.021110665 -0.088526145 -0.013374595 0.025001302
-0.030134192 -0.0270839 -0.05511383 -0.04674495 -0.016699277 0.0667954 -0.055973813 -0.08164498
0.019142957 -0.068880856 -0.07708151 0.05118824 0.016367238 0.0783137 -0.0832981 0.019855367
-0.04870642 0.0011622548 -0.08358028 0.008782063 -0.008284247 0.057647943 0.05650197 -0.010508653
-0.053349476 -0.009307406 -0.05637158 -0.06915211 0.018330792 0.046033077 0.033121422 0.07797289
0.058429442 -0.0029938659 0.031092195 -0.081027485 0.079580545 -0.053632464 -0.016745152 0.062271036
0.04850786 -0.08693026 -0.07613544 0.04227191 0.035394307 -0.08249453 0.03288903 -0.03438999
-0.007819593 0.040154953 -0.07605773 0.078792304 -0.07415757 -0.021847604 0.031164594 0.045321405
-0.037589405 0.019990746 0.079114355 0.026058426 -0.0789418 0.016724378 0.078533046 -0.077781364
0.04782053 0.04802809 -0.007297496 -0.009673636 0.03326954 0.036369685 -0.07830607 -0.0028781383
0.054376908 0.0607891 0.081339195 -0.041313235 0.07679879 0.070199735 -0.04199946 -0.0609444
0.008384578 0.050333586 0.024425605 -0.015020874 -0.028588014 0.009619708 -0.08318048 -0.06403685
0.02498629 0.013962342 -0.005853988 -0.08722693 -0.016129551 -0.038947403 -0.06308283 -0.08532467
0.0012656609 0.051941883 0.081938826 0.04227746 -0.081942104 0.07827012 -0.04798235 -0.0120767355
-0.010323505 0.04499531 0.06422474 0.009383362 -0.012325979 0.016047582 -0.059691086 -4.3063887e-05
-0.071960844 -0.08431097 -0.057166792 -0.017434807 -0.07219121 -0.049659938 0.014212241 0.061360866
0.07563754 0.030831898 -0.040524166 -0.028557679 -0.016664458 -0.041375563 0.073005214 0.059473958
00000000: f1ee 4b3d 4049 1e3c 654e 503d 39ab b9bd
00000010: c056 b03c 4470 763d 3d53 cd3b fd8b 65bd
00000020: 7b81 2d3c 6be6 a93d 07d7 7bbd 4d80 20bd
00000030: 2933 b63d 63b1 523c b2f8 71bd 85ed 1b3d
00000040: b35d 533b 7792 3d3b 8b95 7a3c a288 0cbd
00000050: f9fa 11bb fbef 193d e24b d6bc 9bc0 9fbd
00000060: 8264 6a3d 7e2f 593d 82a6 57bc 8f0e 80bd
00000070: 0b46 8ebd 257a 96bd 839d 04bd b2e0 2c3d
00000080: 6b05 0fbd dca6 ad3c 3fc1 a83d 3bee 303c
00000090: bc34 8dbd b90f 22bd 6210 b7bd cff9 963c
000000a0: 6ac1 ac3a 2860 a03c 4dc3 963d c868 4ebb
000000b0: df04 3dbd 097c 633d f678 45bd 6f1e 213c
000000c0: 470c 583d 4e23 5fbd aa4d c0bd 8929 54bd
000000d0: 84cf a83b 77f7 873d 5831 ce3c 396f 1a3d
000000e0: 2c4b a1bd 7bd8 853d acd0 243c 785b bc3c
000000f0: 6635 c4bb 8c49 0c3d d681 00bd 3206 2bbc
00000100: 6585 50bd b2b5 5f3d 2458 1cbd c169 b8bd
00000110: 5ade 0b3d abfc 03bd c9c0 a2bd 5c30 483d
00000120: 7a3f a33d 115c b8bd 23c7 6f3d bd19 7f3d
00000130: 08b7 8cbd 2506 8f3d 5459 0d3d 6b19 a5bd
00000140: 5c40 09bd f13e 543d 9027 61bb b1d3 893a
00000150: 942c 8fbc a7db f3bc b84a bebd 5a3c 253d
00000160: 919e 013d 35e7 753c 308a afbd f3a7 8d3d
00000170: e782 66bd a519 0d3d f402 aabc 881e 843d
00000180: 62da 533d 0395 98bc eddc e6bc 8c32 d13c
00000190: dc1f 9f3d d891 583b dcc5 7dbc 2fa3 64bd
000001a0: 4d67 62bd d7d4 433d 7c4e 713d 9a39 d9bc
000001b0: 8128 513d 2b5b 73bd 6016 27bd 9e17 10bd
000001c0: 76c9 51bd f661 a0bb c5b4 a1bd f234 6a3d
000001d0: e496 a13d a78e cbbd 3b4d 703d 1c0e 093d
000001e0: 4159 443d e923 2a3c 0596 903d 1976 a23c
000001f0: 46f0 acbc 324d b5bd 1e21 5bbc 88cf cc3c
00000200: fbdb f6bc 0edf ddbc 0abf 61bd a277 3fbd
00000210: eccc 88bc 07cc 883d cc44 65bd 7c35 a7bd
00000220: b1d1 9c3c 6811 8dbd e9dc 9dbd c3aa 513d
00000230: 9614 863c ef62 a03d 3298 aabd b9a7 a23c
00000240: 6280 47bd cd56 983a 232c abbd a4e2 0f3c
00000250: a6ba 07bc 4020 6c3d 9c6e 673d 7c2c 2cbc
00000260: fb84 5abd 177e 18bc e3e5 66bd 9f9f 8dbd
00000270: 752a 963c 2e8d 3c3d 54aa 073d 40b0 9f3d
00000280: b653 6f3d bc34 44bb 0fb5 fe3c bdf1 a5bd
00000290: 20fb a23d b7ad 5bbd 212d 89bc ea0f 7f3d
000002a0: 2eb0 463d 7e08 b2bd e6ec 9bbd 4f25 2d3d
000002b0: 9ff9 103d e4f2 a8bd a6b6 063d 85dc 0cbd
000002c0: c01d 00bc 8579 243d 28c4 9bbd dc5d a13d
000002d0: eddf 97bd bff9 b2bc e44c ff3c f0a2 393d
000002e0: 59f7 19bd a2c3 a33c b506 a23d 7b78 d53c
000002f0: 3dac a1bd 9001 893c efd5 a03d d64b 9fbd
00000300: 76df 433d 1ab9 443d d51f efbb 2c7e 1ebc
00000310: a445 083d 61f8 143d ef5e a0bd 269f 3cbb
00000320: 52ba 5e3d fefd 783d 2a95 a63d 1138 29bd
00000330: af48 9d3d e1c4 8f3d a007 2cbd d6a0 79bd
00000340: 785f 093c 972a 4e3d 3518 c83c 1d1a 76bc
00000350: 6931 eabc fb9b 1d3c 875a aabd c125 83bd
00000360: 0cb0 cc3c 4fc2 643c d0d2 bfbb 08a4 b2bd
00000370: 1f22 84bc 5087 1fbd 9231 81bd b3be aebd
00000380: 88e4 a53a 03c1 543d 8bcf a73d 212b 2d3d
00000390: 43d1 a7bd 164c a03d 2489 44bd 80dd 45bc
000003a0: eb23 29bc 014d 383d 4388 833d acbc 193c
000003b0: e7f2 49bc 3876 833c a47e 74bd 7f9f 34b8
000003c0: 3560 93bd 3bab acbd ba27 6abd 71d3 8ebc
000003d0: fcd8 93bd 3868 4bbd 76da 683c 8855 7b3d
000003e0: dbe7 9a3d 2d93 fc3c abfc 25bd cbf1 e9bc
000003f0: e783 88bc 6c79 29bd c283 953d f79a 733d

fc1.bias f4 [64]
0.03578938 -0.07214674 -0.020828635 0.04321278 0.011025339 0.025277017 0.016310772 -0.07654939
-0.037357893 0.0032773283 -0.0053010536 -0.045245472 0.01168784 -0.006381855 0.06583498 0.008469595
0.037268255 -0.041636605 0.0067164656 -0.077847406 0.07639841 0.034024406 0.048491485 0.0029424748
0.016414331 0.06463179 -0.08712767 -0.08497505 -0.013072729 0.045727998 0.023397468 -0.042480577
-0.08328689 0.01847931 0.073240206 -0.033038806 0.026573386 -0.032736525 -0.010055665 0.050104927
0.04748954 0.065691106 0.04883047 0.07933474 0.0031993606 -0.05463176 -0.0054224012 0.037661523
-0.054259293 -0.022078417 0.010103546 0.077930965 0.06954613 0.033924814 -0.024891343 -0.04517855
0.03527272 0.042676307 -0.010074089 -0.047723502 0.043864083 0.007852515 -0.038401674 0.05459621
00000000: e397 123d acc1 93bd d0a0 aabc e2ff 303d
00000010: a0a3 343c bf11 cf3c 2b9e 853c edc5 9cbd
00000020: 9704 19bd 72c8 563b 76b4 adbb 5153 39bd
00000030: 5b7e 3f3c e11e d1bb 7dd4 863d 0ec4 0a3c
00000040: 99a6 183d 258b 2abd cc15 dc3b 766e 9fbd
00000050: c576 9c3d 2d5d 0b3d 029f 463d 89d6 403b
00000060: 5977 863c ac5d 843d fe6f b2bd 6607 aebd
00000070: 002f 56bc 484d 3b3d 0cac bf3c 1d00 2ebd
00000080: 5192 aabd ec61 973c f6fe 953d b353 07bd
00000090: 6eb0 d93c bc16 06bd 84c0 24bc d33a 4d3d
000000a0: 6484 423d 0f89 863d 7502 483d 417a a23d
000000b0: 5dac 513b 8dc5 5fbd 66ae b1bb f842 1a3d
000000c0: fe3e 5ebd ccdd b4bc 5889 253c 459a 9f3d
000000d0: 346e 8e3d bff4 0a3d eee8 cbbc 250d 39bd
000000e0: 217a 103d 5acd 2e3d cb0d 25bc b879 43bd
000000f0: d3aa 333d d6a7 003c 134b 1dbd 47a0 5f3d

fc2.weight f4 [3, 64]
-0.09858343 0.09801364 0.100516334 0.10249686 0.09698836 0.048555672 -0.031415284 -0.06249442
-0.037188306 0.06712614 -0.05947471 -0.087313116 -0.020502586 0.10814019 -0.04578546 -0.004013529
0.074853934 0.060964257 0.086267754 -0.03979415 0.10513653 0.024673194 -0.0035098437 -0.0009027245
-0.119831994 0.017021416 0.0031240135 -0.033414632 0.09062843 -0.0659836 0.029384471 -0.012026727
0.08276568 -0.05198341 0.041961648 -0.10773552 0.09312775 0.0055968966 0.0048544104 0.056840498
-0.06811019 -0.11808457 -0.1103425 -0.002080182 0.07093673 0.12116911 -0.054766584 -0.0501076
-0.07455531 0.014524385 0.012855443 0.010493644 0.039819203 0.08835399 0.018427208 0.08329217
-0.032610476 0.09344975 -0.032859974 0.05646624 0.09121254 0.014986155 -0.03233509 -0.062210057
-0.046402656 -0.10185639 -0.010366088 0.09511784 0.07523279 0.020597497 -0.098349206 -0.021247331
-0.03827308 0.019464899 0.007020164 0.063506395 0.03784171 0.075640455 -0.12305996 -0.035947423
-0.07806984 0.008235902 0.08296373 -0.0028202638 -0.010485229 0.07145145 0.06456396 0.07200942
0.011656168 -0.063176535 -0.10654402 -0.07187326 0.047308117 -0.11496207 0.05271232 0.013679177
0.09009017 -0.005001256 0.002597225 -0.024812467 -0.1335215 0.08478413 -0.07536213 -0.10840398
0.033167977 0.08229362 -0.12828144 0.05538399 -0.06687301 0.06539566 -0.06581213 -0.051914915
-0.058292672 0.060593873 -0.07684463 -0.029454686 -0.068904184 0.017932408 0.07004777 0.05742332
-0.027173406 0.04924425 -0.012308618 -0.064836815 -0.04358036 -0.11424028 -0.045227177 -0.06302036
0.021535536 -0.060089905 0.09724766 0.042138424 0.09614327 0.11835616 -0.0018463864 0.09035468
0.008740321 -0.012151252 0.05575902 -0.016869754 -0.0009883142 -0.095937945 -0.0577029 0.051415026
-0.0718157 0.014553017 0.07996703 -0.008532757 -0.06604476 -0.006045509 -0.13951038 0.08961971
0.10843777 -0.11606862 -0.0743231 0.10950996 -0.014589578 -0.031013353 0.070854634 0.08159588
-0.04167998 0.10015777 0.030424517 0.010013312 0.018968433 -0.017167285 0.08901326 -0.045288183
-0.07576632 0.040304374 0.08535843 0.13629282 0.0127171865 0.048235804 0.04478675 -0.060756475
0.0060665607 0.073615626 0.10899139 -0.09730299 0.07942026 -0.06274881 0.037911024 -0.106660485
0.05297987 0.09826482 -0.108401105 0.11399035 -0.17496797 -0.11786081 -0.046788685 0.019009687
00000000: 1ce6 c9bd 60bb c83d 82db cd3d e0e9 d13d
00000010: d5a1 c63d 50e2 463d 50ad 00bd 26fa 7fbd
00000020: c452 18bd 6e79 893d c19b 73bd 38d1 b2bd
00000030: 0af5 a7bc 9b78 dd3d 8989 3bbd ec83 83bb
00000040: 054d 993d a8b5 793d 26ad b03d 31ff 22bd
00000050: d251 d73d 701f ca3c 6805 66bb d1a4 6cba
00000060: 7a6a f5bd 7f70 8b3c 40bc 4c3b c8dd 08bd
00000070: 669b b93d 6922 87bd b4b7 f03c c00b 45bc
00000080: 0e81 a93d 8eec 54bd fadf 2b3d 71a4 dcbd
00000090: c3b9 be3d 2c66 b73b bf11 9f3b 95d1 683d
000000a0: 5b7d 8bbd 53d6 f1bd 40fb e1bd aa53 08bb
000000b0: 4747 913d 8327 f83d ed52 60bd a03d 4dbd
000000c0: 74b0 98bd b0f7 6d3c a39f 523c 88ed 2b3c
000000d0: 7619 233d f0f2 b43d a8f4 963c 1695 aa3d
000000e0: 9092 05bd 9562 bf3d 2e98 06bd 2549 673d
000000f0: a4cd ba3d 7d88 753c cd71 04bd f9cf 7ebd
00000100: b610 3ebd 159a d0bd 86d6 29bc 24cd c23d
00000110: a613 9a3d 15bc a83c 4f6b c9bd e20e aebc
00000120: 3cc4 1cbd da74 9f3c 6709 e63b a40f 823d
00000130: e9ff 1a3d 62e9 9a3d dc06 fcbd 9b3d 13bd
00000140: 15e3 9fbd e0ef 063c e3e8 a93d 2dd4 38bb
00000150: 3dca 2bbc 2355 923d 1c3a 843d ad79 933d
00000160: 83f9 3e3c b362 81bd c033 dabd 4a32 93bd
00000170: 28c6 413d 3c71 ebbd e0e8 573d a01e 603c
00000180: 3281 b83d 93e1 a3bb 3436 2a3b 8443 cbbc
00000190: dcb9 08be 4da3 ad3d 7657 9abd e802 debd
000001a0: 25db 073d 8f89 a83d 365c 03be 53da 623d
000001b0: b7f4 88bd 29ee 853d 83c8 86bd bca4 54bd
000001c0: 4cc4 6ebd 4831 783d b860 9dbd f44a f1bc
000001d0: a31d 8dbd fce6 923c 3575 8f3d b734 6b3d
000001e0: c39a debc 57b4 493d 16aa 49bc 2ac9 84bd
000001f0: 5281 32bd cff6 e9bd 2240 39bd d210 81bd
00000200: 4b6b b03c d520 76bd c829 c73d 5799 2c3d
00000210: c3e6 c43d b764 f23d 7202 f2ba e00b b93d
00000220: 9033 0f3c 0b16 47bc 9263 643d 7032 8abc
00000230: 528a 81ba 1d7b c4bd e059 6cbd 9098 523d
00000240: 1c14 93bd c76f 6e3c c1c5 a33d facc 0bbc
00000250: 7a42 87bd 6819 c6bb cfdb 0ebe 8a8a b73d
00000260: 9f14 de3d 62b5 edbd b636 98bd c246 e03d
00000270: 2009 6fbc b70f febc 3c1c 913d be1b a73d
00000280: a0b8 2abd 841f cd3d d63c f93c e00e 243c
00000290: b063 9b3c 68a2 8cbc 964c b63d 1a80 39bd
000002a0: 5f2b 9bbd 3316 253d 67d0 ae3d 5890 0b3e
000002b0: bf5b 503c e892 453d 5072 373d c8db 78bd
000002c0: 00ca c63b cac3 963d e136 df3d ca46 c7bd
000002d0: 17a7 a23d 7382 80bd 9748 1b3d d070 dabd
000002e0: 6c01 593d 113f c93d 6601 debd c673 e93d
000002f0: ce2a 33be 0261 f1bd 7ea5 3fbd 34ba 9b3c

fc2.bias f4 [3]
-0.02536586 0.058826413 -0.099017896
00000000: 10cc cfbc f7f3 703d e5c9 cabd
