saved_models/lstm_model.pt (torch, 207714 bytes, 9 tensors)

lstm.weight_ih_l0 f4 [256, 3]
00000000: 20d7 0b3e 1b9d 62bd ad79 75bd 9ab1 55bd
00000010: eaaa babc 4110 47bd 0eda f43d d74c ed3d
00000020: 719b d03d 6b59 a2bc ebb6 873c 8f1b 8ebd
00000030: c7cb b2bd ce3f 773c e2d6 5ebd 86bc 54bd
00000040: 31d8 8ebd 582e ab3d 2e61 843c 50e3 bc3d
00000050: 3a86 ee3d b802 533d 6919 3fbb 0b22 90bc
00000060: 2a4a 673d ce59 883d 7fc0 eebd 0470 74bd
00000070: 11a1 653d 2ef4 b53d ead3 b33d a1d0 bf3d
00000080: 77b3 c33d 6fa0 d2bd 684c 0b3d 69bd 073e
00000090: 3c59 b6bc 6b11 57bd 8c54 773c 2ed6 87bd
000000a0: a74f abbd 6eea e93d 0b06 bebc 4caf d8bd
000000b0: 3bfc 93bd c6c4 85bd 61da 4f3c 3436 99bd
000000c0: da9f 7dbd 7943 243d 9203 8dbd 3620 85bd
000000d0: fa1d 563d 3caf 47bb 5a43 41bc 57bd 49bc
000000e0: 51fc 9f3d 99de 103d d917 09bc bd97 d23c
000000f0: 96c8 4f3c 5afa 39bd aa19 25bd d4d8 8f3d
00000100: ed99 72bd 65ba 1a3d 84ae a9bd bbda d8bd
00000110: 82d4 d43d f086 82bd f3ef 4a3d 5d0f bd3d
00000120: 03bb 4dbd 3162 dfbd 7909 43bd 42ed c13c
00000130: 04fc 0cbd 5d92 e73d da04 033e 6048 453d
00000140: 7ffd 3cbc 08ae 8b3d 0e77 bb3d 1eb3 2b3d
00000150: 82f2 933d 1c29 34bd 27a3 ecbc 738d a03c
00000160: 939e d1bc 661d a43d 5f0b 85bd ee44 2dbd
00000170: 65bb 08be 14e4 5e3d 2329 a9bd 666c 7dbd
00000180: f5fb da3d 3675 7abd 345f 153e f203 06bc
00000190: 99f6 903d 0e91 acbd 0830 933c 1470 a8bd
000001a0: b3c2 173d 179b 0cbe 1510 cfbd 0cf7 8bbc
000001b0: 1f74 ee3c c4f4 9f3c 1d87 e73d 79bf 37bd
000001c0: fbab e4bd 4f18 893d 847c 18ba 9904 26bd
000001d0: c881 6b3d e186 aabc 96bb c6bd d6df 98bd
000001e0: 47b1 723d 474e b9bd 0090 c7bd 8066 b5bd
000001f0: 2b68 343d 9508 f0bd 29cb 19bd bebd c6bd
00000200: a977 3a3d 6b38 62bd 995c 86bd 487c 8cbd
00000210: 8028 50bd c5ab 60bd 189f d73c 9cad d1bc
00000220: 5916 e53d 501a 98bd fe09 a6bd 5fd3 6cbd
00000230: b75d ccbd 4407 543d f255 a33d 4d4d 6bbd
00000240: da5f 513d b7ed f1bd b504 2a3c 5695 68bd
00000250: 4a59 babd 5196 0f3d 43e1 923c 86e0 4ebd
00000260: 45c5 b23d 500c 8abd 033a 9d3d 80fc b53d
00000270: 5bb1 81bd 30ce af3d 7e28 51bd 464c ee3d
00000280: 9908 8ebc 49e1 34bd 271c 89bd 6b63 76bd
00000290: 52ee 8c3d da2b d83d a8a9 36bd dc1a c33d
000002a0: 54a6 b73c 3780 dabd f414 cbbd 2116 d33d
000002b0: d5a6 1cbd 1f20 ac3c 7876 78ba d1ef 9dbd
000002c0: 5b41 983d 1eaf 8cbd f136 d0bb 5cc3 acbd
000002d0: 8c4e 18bc 3048 573d 766a d7bd fb1b d23d
000002e0: b777 cf3b 6c69 a83d e169 33bd a6d8 93bd
000002f0: 1347 2f3d 27c0 f3bd 28a6 87bd 4c60 b3bd
00000300: 5500 ab3d 61aa 6ebd 0d86 b63d 5793 b23c
00000310: 1de1 82bd 2595 58bd b8fd b9bd 1656 f53d
00000320: 49d5 123e b062 c33d 6c82 d7bd b401 a43d
00000330: 30cf ee3c 335e 27bc 72fb 043e 2c22 e33d
00000340: 6515 163d 7de1 d73d 4a18 f53d d6b7 ec3b
00000350: 2b9f b8bc e4d5 8a3c 0730 b6bd eead bcb9
00000360: 4d25 063d 9903 7339 1661 14bd 9652 84bd
00000370: 304d c3bd 82dc 703c b838 aabd ac08 f53d
00000380: 3c7d 8abd 65e4 253d 8196 cdbb c1bd 063e
00000390: bf1b 5bbc e088 62bd 3ba9 18bc 141b d53d
000003a0: f4d3 993b f225 ca3d 1f3b b6bd 83b4 ea3d
000003b0: a5a6 37bd 3f9e d7bd e047 d33c d4e0 303d
000003c0: 089f 2bbd 546c dc3d cffa 8b3d 3381 84bd
000003d0: 882a 343d d38a ecbb 47af ab3d 40bd b23d
000003e0: 76fe 083e 0b7e 8cbd 4a2f dabd 82b4 a8bd
000003f0: a54a 733d f058 c4bd 87f6 873d 3c5a 98bc
0.13656282 -0.05532561 -0.059930492 -0.052171327 -0.022786576 -0.048599485 0.11955653 0.11586922
0.10185898 -0.019818028 0.016566714 -0.0693885 -0.08730274 0.015090896 -0.054404147 -0.051937602
-0.06974829 0.08358449 0.01615962 0.09223044 0.116466954 0.051516265 -0.0029159433 -0.017594358
0.056467213 0.06657754 -0.116578095 -0.05967714 0.056061808 0.08884464 0.08780654 0.09365965
0.095557146 -0.102845065 0.034008414 0.13255848 -0.022259347 -0.052506845 0.015095841 -0.066326484
-0.08364802 0.11421667 -0.02319624 -0.1058031 -0.072258435 -0.06531672 0.012686343 -0.074810416
-0.061920024 0.04010341 -0.068854466 -0.065002844 0.05227468 -0.0030469438 -0.011795843 -0.012313209
0.078117974 0.035368536 -0.008367502 0.02570712 0.012682101 -0.04540477 -0.04030768 0.070237786
-0.059228826 0.037775416 -0.08285239 -0.105885945 0.10392095 -0.063733935 0.04954524 0.09231446
-0.050227176 -0.109074004 -0.047616456 0.023672704 -0.03442003 0.113072135 0.1279482 0.048164725
-0.011535048 0.06820303 0.09153567 0.041918866 0.07223989 -0.043984517 -0.02888639 0.019598698
-0.02558831 0.0801342 -0.064963095 -0.042302065 -0.13352735 0.05441673 -0.08259799 -0.061870955
0.10692588 -0.061146937 0.14587098 -0.008179652 0.07078285 -0.084261045 0.017967239 -0.08224502
0.037050914 -0.13731037 -0.10110489 -0.017085575 0.029108105 0.019525893 0.11305068 -0.044860337
-0.11165615 0.066940896 -0.0005816894 -0.04053173 0.057496816 -0.020816268 -0.09703748 -0.07464568
0.059251096 -0.09048133 -0.09744263 -0.08857441 0.044044655 -0.11720387 -0.037547264 -0.09704159
0.045524273 -0.055229586 -0.0656063 -0.06859642 -0.050819874 -0.054851312 0.026320979 -0.025595479
0.11185903 -0.07426894 -0.081073746 -0.057818767 -0.09978812 0.05176474 0.07975377 -0.057446767
0.0511168 -0.11812919 0.010377099 -0.056783043 -0.09099062 0.035055462 0.017929679 -0.05050709
0.087290324 -0.0674063 0.076770805 0.08886051 -0.06332656 0.08584249 -0.051064007 0.11635642
-0.017338084 -0.04416016 -0.06694823 -0.060153406 0.068813935 0.10555239 -0.04459539 0.095266074
0.022418179 -0.10668986 -0.09916106 0.10306955 -0.03824504 0.02101141 -0.00094781024 -0.07711757
0.074343406 -0.068693385 -0.006354206 -0.08435699 -0.009296071 0.052559078 -0.10518353 0.10259243
0.00633141 0.082232326 -0.043802146 -0.07219057 0.04279239 -0.119018845 -0.06623489 -0.087586015
0.08349673 -0.058267955 0.08912287 0.021798773 -0.06390593 -0.05287661 -0.09081596 0.1197931
0.14339174 0.095403075 -0.10522923 0.08008137 0.02915153 -0.01021533 0.12986544 0.11090502
0.036641497 0.10541055 0.119675234 0.0072240634 -0.022536835 0.016947694 -0.08895879 -0.00035987742
0.032750417 0.00023175626 -0.0362254 -0.064610645 -0.09536207 0.014701011 -0.083115995 0.11964545
-0.06762168 0.040501017 -0.006274045 0.13158323 -0.013373314 -0.055306315 -0.009317691 0.10405555
0.0046944562 0.09870519 -0.08897995 0.11460211 -0.04483666 -0.1052823 0.025791109 0.043183163
-0.04189971 0.107628495 0.06834947 -0.06469955 0.043985873 -0.0072186976 0.08383041 0.08727503
0.13378319 -0.06859978 -0.10653551 -0.08237554 0.05939736 -0.09587276 0.06638818 -0.018597715

lstm.weight_hh_l0 f4 [256, 64]
00000000: 9ff5 67bd f1f4 b2bd a0e9 a0bd ea88 cf3c
00000010: ee3f 453d 524a 90bd 23e0 07bd d522 96bd
00000020: f2b6 66bd 4496 0abe 188f a7bc 5b93 d8bd
00000030: a2fb 18bc 92f8 93bd 25ff 913c 4991 d6bd
00000040: a46d 52bd b094 e4bd e1ed 493d aba3 433d
00000050: bdc8 aebc 7fae e6bd a024 cbbd be1a de3d
00000060: 9c6f c6bc e0b2 4b3c 9265 ce3b 925e 9bbd
00000070: 4042 fbbb f4de 18bc 334a f53d 06e4 ae3d
00000080: 7ccc 4cbd 9c79 443b e575 143c 1c0b 96bd
00000090: eece b9bc f378 fc3d a602 d2bd 5b40 203d
000000a0: f3a6 f53c afcb 993d 5e81 16bd 9e13 423d
000000b0: ba7a 2cbd 97ba 283d 0574 c6bd 7843 2c3d
000000c0: af08 b23a fb5a cb3c 3213 a1bd 2de8 d9bd
000000d0: 3f4f c7bd a8d6 ba3d f3cf ba3d 3a4a dbbb
000000e0: d1c2 863d cfd8 04be 0ca9 f6bd 2a5a 1e3d
000000f0: 0c22 053e 8681 80bd 7b4e c6bd 379b d23d
00000100: b395 e93d c139 473d 95fa 2d3d 1885 87bc
00000110: e8ef d33d 4e2b 4d3d cac4 5dbd 175c 32bc
00000120: 115f 5cbd 7ead 323c 6f2a 893d 8762 693d
00000130: 5feb fcbd 5e2e b1bd 4378 1fbd b779 da3c
00000140: d212 903d 84c1 0ebc 42a0 ba3d dddc ebbd
00000150: 07d1 5f3d 83a3 09be b7a4 abbd 4114 8dbd
00000160: c10a 613d 0152 db3c 3f34 6dbd e4c1 9fbc
00000170: ced6 9d3d 95fd 513d e984 1bbd e8f6 b83c
00000180: 1f42 b8bd 2f5f c4bd f8fe 083d ba0c 073e
00000190: 08d7 06be 6098 c43d e93f cd3d 38a2 953d
000001a0: 3c6a 64bd a524 843d e4bc 473d a0e1 0ebb
000001b0: 65cf 633d db7f d03d 4c67 04be 6ef9 49bd
000001c0: 36f9 bdbd da83 3a3d 73e1 1f3c a918 943d
000001d0: 2894 c33d ace1 fc3c 9fa1 03bd a02b 8a3d
000001e0: 23b7 ddbd 3c8a e93c 6b2f 0cbc 09f9 753d
000001f0: f928 55bd eda4 ac3d 20a8 b63c c78d 6bbd
00000200: 88af cd3d 7ce1 5dbd 557d 0a3e c418 a43d
00000210: 4fbf 9dbd 69a7 b63d ff45 8f3c 0f43 473d
00000220: 7681 40bd e545 873d 87ce e53d d995 db3d
00000230: ca5c 66bc a35a acbd 827f d8bd 47f2 bb3c
00000240: f3ef 0fbe 1960 8cbc acd1 2ebd 94bc 77bd
00000250: 64dd 8d3c 5cb9 553d f3fd 0abe a66b b83d
00000260: 3339 df3d cdb6 a9bd b9f0 96bd 12f5 57bd
00000270: e82e 82bd ffdb 85bd cafa c6bd fac6 e8bc
00000280: 0c4a 91bd 38a6 f5bb 05e1 2fbd 2092 a6bd
00000290: d969 b5bc 604b dc3d 8eae bbba 5419 3b3d
000002a0: b6f7 43bc 45ed 9bbd 11d2 86bd e95e a13d
000002b0: 574a d1bd d8ad febd 36f9 823d 43ca 793c
000002c0: 4bc9 a83d fcd9 a8bd 13d0 24bc 32a9 9f3d
000002d0: 11f3 16bc 4d90 06bd 37fc 89bd 466c c1ba
000002e0: bca1 93bd 0d5a 35bc 0daf 983d d95f 6d3d
000002f0: 2cff 723d 75d4 e3bd ed44 6b3d 3e6b 66bd
00000300: 68d2 8fbd da06 753c d029 b63c b0dd 463d
00000310: f988 a13d ecf8 d63d 3e23 0a3d 87a3 d23d
00000320: 9961 e8bb ead8 4c3d 6523 413d 7338 d4bd
00000330: f324 e5bd 52b3 0e3d 505e 773d 6a7a 91bd
00000340: 66d8 4b3a 2c3e f33d a6d0 9f3d 00df 94bc
00000350: 8762 d5bc 166f a5bc cab8 d33d f5dd fa3d
00000360: 7ed2 98bd 5837 48ba fedd 2a3d 80a6 b23d
00000370: 5cce 79bd 0302 db3d ae38 073d 7a75 633d
00000380: 806e d8bd 6d0a 11bd c2c6 d5bd 7882 633c
00000390: c86f dc3c 420b 1b3c 9132 32bc 5310 ca3d
000003a0: 9c7b 193d 94e8 65bd 4bca 583d 85c0 e0bd
000003b0: 30f7 fe3d 8337 9abd de8d 92bd 24e7 6c3d
000003c0: d602 64bd ef89 72bb 9e0f 953d c012 a1ba
000003d0: 3799 433d fca5 c0bd 57b1 763d 48aa a23c
000003e0: 3d28 623c ce88 25bd 456f 49bd f74b abbc
000003f0: 486b 733b ab55 183d c32b 00be 071b b6bd
-0.056630727 -0.08738125 -0.078570604 0.02533384 0.04815667 -0.070454255 -0.033172738 -0.073308624
-0.056326814 -0.13533884 -0.020453975 -0.10574981 -0.009337338 -0.072251454 0.017821858 -0.1047693
-0.051374093 -0.111611724 0.049299125 0.047763508 -0.021335954 -0.11263751 -0.09919095 0.108449444
-0.024223141 0.012432784 0.006298729 -0.07586397 -0.0076678097 -0.0093305 0.11977043 0.08539586
-0.0499997 0.0029979711 0.009061311 -0.07326338 -0.02268168 0.12327757 -0.102544114 0.039123874
0.029986834 0.07509553 -0.036744468 0.04738199 -0.04210923 0.04119357 -0.09690098 0.04205653
0.001358291 0.024823656 -0.07864989 -0.10639987 -0.09731912 0.09122974 0.091216944 -0.006692198
0.06580127 -0.12973331 -0.12043962 0.038660206 0.13001269 -0.06274705 -0.09682938 0.10283511
0.11405506 0.048639063 0.0424753 -0.016542956 0.10348493 0.050090127 -0.05414275 -0.010886214
-0.0538016 0.010905622 0.06697547 0.05697873 -0.12349581 -0.08651422 -0.03893305 0.026669366
0.0703484 -0.00871313 0.09112598 -0.11516736 0.054642703 -0.13441281 -0.08381026 -0.06888629
0.054941896 0.026772501 -0.057911154 -0.019501634 0.07706986 0.051267225 -0.03796855 0.022578672
-0.089969866 -0.09588467 0.033446282 0.13188449 -0.13167965 0.09599376 0.100219555 0.073063314
-0.055765375 0.06452302 0.048764125 -0.0021801963 0.05561771 0.101806365 -0.1293003 -0.04931014
-0.09276049 0.0455359 0.009758341 0.07231266 0.09549743 0.030869327 -0.032136556 0.06746602
-0.10825946 0.028508298 -0.008556227 0.06005195 -0.052041028 0.084298946 0.022296965 -0.057508256
0.100432456 -0.054170117 0.13524373 0.08012536 -0.07702505 0.0891865 0.017489431 0.048647936
-0.046998464 0.06605128 0.112210326 0.107219405 -0.014060209 -0.08415725 -0.10571195 0.022942675
-0.14056377 -0.017135667 -0.042680427 -0.060482576 0.017317481 0.052178726 -0.13573436 0.09004907
0.10899582 -0.082868196 -0.07370133 -0.05272395 -0.06356603 -0.065361015 -0.09715803 -0.028415192
-0.070942014 -0.0074966215 -0.042939205 -0.0813334 -0.022145199 0.10756564 -0.0014318989 0.04567845
-0.011960914 -0.07613615 -0.06583036 0.07879431 -0.10219257 -0.12435502 0.063951895 0.015245977
0.082415186 -0.08244702 -0.010059374 0.07795943 -0.009213225 -0.03285246 -0.06737559 -0.0014757
-0.07208583 -0.011068833 0.07455263 0.057952736 0.059325382 -0.11124507 0.05743878 -0.056254618
-0.07022554 0.014955247 0.022236735 0.04855126 0.078874536 0.10496697 0.033725016 0.102850966
-0.0070917127 0.050011553 0.047152895 -0.10362329 -0.11188688 0.034838982 0.060392678 -0.07103427
0.00077760813 0.11877093 0.078034684 -0.018172741 -0.026047958 -0.020194571 0.1033798 0.12249366
-0.07462023 -0.00076376414 0.041715614 0.087231636 -0.060987815 0.10693743 0.03301304 0.055531956
-0.10567951 -0.035410333 -0.10438301 0.013886087 0.02690877 0.009463133 -0.010876314 0.09866395
0.0374714 -0.056130007 0.052927297 -0.1097422 0.12449491 -0.07530119 -0.07155965 0.05783762
-0.055666767 -0.0037008484 0.07278369 -0.0012288913 0.04775354 -0.09406659 0.06022772 0.019856587
0.013803539 -0.04041367 -0.04917838 -0.020910246 0.0037142802 0.037191074 -0.12516694 -0.08891874

lstm.bias_ih_l0 f4 [256]
00000000: d605 5abc e472 babd f55b 023d 9a99 fbbd
00000010: 8c47 863d f74f b2bd 3cbd 8fbd 1273 8fbd
00000020: 0278 993d d140 06bd caee 033e f8e0 25bc
00000030: c5fb 1abd e170 8fbc 38f0 7f3d d1c8 a3bc
00000040: 3637 ee3d 40f8 ccbb 89ae afbd 3e8e 873d
00000050: 5aae 613d ff43 093e 661d a5bd d22a c3bc
00000060: 6437 0fbd 0bc3 d73d 6e95 233d 9c01 b8bd
00000070: 6c6d 4b3d eb6b d4bd 5a07 cfbc 9e7c 7dba
00000080: d0b6 a43c c63f 363d c291 8abd 4cb1 cc3d
00000090: 91fb debb f940 463d 7380 d93d e990 2d3c
000000a0: f770 abbd 71d5 5e3d 4292 d3bc 92bb b4bd
000000b0: 69ff de3d 0425 0b3d 99fb 513c 188f 213d
000000c0: 74b1 c3bc 5a02 ddbd 248b d0bd 3046 39bd
000000d0: e526 913c 0263 d33a 3c4d c93d 6e83 f83d
000000e0: da13 d6bd 1e68 aa3d f4f2 ab3b 8b65 c5bd
000000f0: 2cd9 dbbd adef 303c 54c1 dabd ca7c 03be
00000100: 5eb3 98bd f4e5 073c a9bb 633d 293b 87bd
00000110: 1fd2 c3bc 477e 743d 50db 8ebd 8606 933d
00000120: 9e3a f7bd 8983 62bd b5a7 ec3d dd25 a33d
00000130: 994a acbd 6721 cb3c f43e 1abc c36b cebd
00000140: 6fd2 bdbd 2065 82bd b98a 75bb 862f cabd
00000150: e9c1 45bc 606f 733d d4e8 91bc 5988 143d
00000160: 8164 89bc b411 c93c aa8c 483d 10bf 36bd
00000170: 1923 a73d a65e c9bd e878 983d d268 a0bd
00000180: 76cf a73d 8384 06bd bf1a b4bd e729 cfbd
00000190: 99c4 b33d decc 98bd 03c5 76bb 0b61 a4bd
000001a0: 03bf 123d 9633 94bc 5dc0 c93d a48c ad3d
000001b0: 980c d83d 22ec e03c 04ee 5e3d 531a e63c
000001c0: 80cc c43d 453e 96ba e1d4 50bc e264 cb3d
000001d0: bb3a 2fba 7a59 bdbd 8f40 d23d 0e66 003e
000001e0: ce6e 65bd beb4 c63d 98c5 b4bd 7b9f 0f3d
000001f0: 642a 7c3c 7dbc 7c3d 87f2 cabd 6352 c43d
00000200: dee0 093a 47b9 0cbe d613 c93d 4a47 903d
00000210: f4ef ca3d e0b0 a1bc e2e3 a13d 23f6 ec3d
00000220: 91a7 c43d c3a6 b3bd 94cb a8bc 0da9 aa3d
00000230: 1a20 3bbd 1c37 e6bd 7ecb 35bd 0ef6 263d
00000240: 4e35 a23d 2e7d 8fbd 4580 ea3d 5e6c 94bd
00000250: 46ac 0f3e 3839 c1bd 0438 ac3d 9103 a33d
00000260: 2a68 c0bd 7694 733d b7f5 9b3d 4f2e 4ebd
00000270: ada0 403d ce72 e53d 2876 1b3d fb6b babc
00000280: 5680 243d a42c efbd e824 87bd 011a 7539
00000290: c051 47bd d241 1fbd 9678 773a 9b27 24bd
000002a0: 2bfb 013d 5b38 ff3c d79a eebc 7ecc 473d
000002b0: 2872 45bd 5857 2bbd 4d2b f6bd 56cc 9dbd
000002c0: 37b0 dfbc 6a5a 2e3d 676d b5bd 4386 f83c
000002d0: 5e13 3bbd 0973 5ebd 1810 90bd bbe5 6dbd
000002e0: 2c8c dabc afc2 eabd c147 c33d 54c8 03be
000002f0: 8d72 9d3d 2aa9 d7bc 18ff 513d b6c4 80bc
00000300: 80cc 963d ad38 0a3e e945 093e 4517 803d
00000310: 5948 c2bd ef51 b43d 78c8 28bd c4ce c73d
00000320: 5d60 a7bd ab9d efbd d114 dc3d 9f46 f03d
00000330: c385 b53d 3637 34bc 2fea 4cbd 993c c3bd
00000340: 83c8 4a3d 2596 f2bd 7208 9fbb 4a16 e6bc
00000350: 9a84 93bd 64a8 a03c a0a9 c7bd 2317 20bd
00000360: 1a03 05be 681d 0f3e 3875 783c f590 343d
00000370: d79f 87bd 6b43 e5bb eed7 9f3c 110b 9d3b
00000380: 71b9 ecbb e131 9dbd f1c5 c93c 2e4d babd
00000390: ee8f 3c3d 9eb0 623d b265 e7bd 4348 313d
000003a0: 133c 93bc 1aa2 d1bd 5990 593d 9a23 fdbd
000003b0: abe6 a53d 2a7c 3cbd 9af6 28bd 9a3f d23d
000003c0: d624 ac3d c0ea 17bd e9b1 453b af0c 523c
000003d0: 7b48 f4bc 4981 b8bb c936 e5bd fb41 efbc
000003e0: 0f93 c6bd ed34 9d3d 5b04 c13d 9131 963d
000003f0: 8c3b 1a3d 657f 163c ab76 bf3c 8ed0 b4bd
-0.013307055 -0.09103945 0.03182598 -0.122851565 0.06556615 -0.08706658 -0.070185155 -0.0700437
0.07493593 -0.032776657 0.1288406 -0.0101244375 -0.037837762 -0.01750988 0.06248495 -0.019993218
0.116316244 -0.0062551796 -0.08578212 0.066189274 0.055097915 0.13404845 -0.08062248 -0.02382413
-0.034964934 0.10535248 0.03993743 -0.08984682 0.0496649 -0.10372146 -0.02527206 -0.00096697535
0.020106703 0.044494413 -0.06766082 0.09994754 -0.0068048914 0.048401807 0.10620203 0.010593631
-0.08371156 0.054402772 -0.025826577 -0.08824839 0.10888559 0.033970848 0.012816333 0.039443105
-0.023888327 -0.10791464 -0.10182789 -0.04523295 0.017718742 0.0016127529 0.098291844 0.12134443
-0.10453005 0.0832064 0.005247468 -0.096385084 -0.107347816 0.010799331 -0.10681406 -0.12840572
-0.074560866 0.008294571 0.05559889 -0.06603081 -0.023903904 0.05969074 -0.06975424 0.071789786
-0.12071727 -0.055301223 0.11555425 0.07966206 -0.08412666 0.0247962 -0.009414423 -0.10079148
-0.09268653 -0.06366944 -0.0037466718 -0.098723456 -0.012070158 0.059432387 -0.017811216 0.036262844
-0.016771557 0.024544574 0.048962273 -0.044615805 0.08160991 -0.09832506 0.07444936 -0.07832493
0.08193867 -0.032841217 -0.08794164 -0.10115414 0.087777324 -0.0746095 -0.003765405 -0.08026322
0.035826694 -0.018091004 0.098511435 0.08474091 0.10549277 0.027456347 0.05442621 0.028088724
0.09609318 -0.001146265 -0.012746067 0.09931351 -0.0006684472 -0.09245582 0.1026622 0.12538931
-0.056013875 0.097024426 -0.088267505 0.0350642 0.015390966 0.061703194 -0.0990954 0.095860265
0.0005259643 -0.13742553 0.098182365 0.07044847 0.09909049 -0.01973766 0.07904793 0.11570384
0.09602273 -0.08772042 -0.020604886 0.08333025 -0.04568491 -0.1124098 -0.04438352 0.040762
0.07920323 -0.07006298 0.11450247 -0.07247232 0.14030561 -0.09434742 0.08409122 0.079596646
-0.09394868 0.059467755 0.07615226 -0.050337132 0.047028232 0.11203538 0.03795448 -0.022756567
0.040161453 -0.116784364 -0.06598836 0.00023374708 -0.048661947 -0.03888113 0.0009440271 -0.040076833
0.031733673 0.031154802 -0.029126568 0.048779003 -0.04820457 -0.041831344 -0.12019978 -0.077049896
-0.027305705 0.042566694 -0.088587575 0.030337458 -0.045672767 -0.054308925 -0.0703432 -0.058080416
-0.026678167 -0.11462914 0.0953517 -0.12869388 0.076878645 -0.02632578 0.051268667 -0.0157188
0.07363224 0.13498183 0.13405575 0.06254438 -0.094864555 0.0880469 -0.041206807 0.09756234
-0.08172677 -0.11699995 0.10746158 0.1173222 0.08863404 -0.010999491 -0.050028022 -0.095330425
0.04950763 -0.11845044 -0.0048533017 -0.0280868 -0.07203026 0.019611545 -0.0974915 -0.039084565
-0.12989464 0.13976061 0.015164666 0.044083554 -0.06622284 -0.0069965622 0.019512143 0.004792579
-0.007224255 -0.07675529 0.024630519 -0.09096752 0.0460357 0.055344217 -0.11298694 0.043281805
-0.017972982 -0.102359965 0.053116176 -0.12360306 0.08100637 -0.04601685 -0.041250803 0.10266037
0.084054634 -0.03708911 0.0030165857 0.012820407 -0.029819718 -0.0056306464 -0.1119209 -0.029206267
-0.09696018 0.076761104 0.09424659 0.07333673 0.037654445 0.009185647 0.023372015 -0.08828841

lstm.bias_hh_l0 f4 [256]
00000000: f7f1 94bd ccc6 e0bc 79bf 213c ffda afbd
00000010: 56a5 bc3b 4b2b 813c dbba 393d 564e 7c3c
00000020: f8dc 35bd 4f7c 283d ef08 e1bd 67d4 c63d
00000030: 1b60 7a3c 3ec4 d93d 1a17 debd 48b1 823c
00000040: 445e 1ebc 8af4 36bd 4ee1 973c 30e8 9abd
00000050: 1201 323d 7e89 c7bc 00a6 a7bd 20e0 603d
00000060: 5634 963d 1b24 bf3d c8d4 b9bd 7a34 b83d
00000070: 362c f139 9363 2abd c70e d4bd fa81 85bd
00000080: e696 c2bd 3a41 013d 1b6c 583a 825d fabd
00000090: 4d1f 013d dd3d a33d 6e24 c5ba 2113 bebd
000000a0: a7e0 c93d e748 e2bd a632 96bd 710f 19bd
000000b0: f6d4 9bba e40a 783d c66a 4d3d 718b ebbc
000000c0: 31d7 d03d a6d1 8d3d 6f58 863c aa02 c33d
000000d0: 76db 7abc 0f2a 36bc 8049 943d f265 b2bd
000000e0: b0c9 c4bc e793 61bd 2c4b c23c d7c2 af3d
000000f0: 66a0 283d 51c5 143b 885f fc3c 67ea 65bd
00000100: 01de 29bc 55e9 b93d 09c0 063e a462 d03c
00000110: a90f bb3d 69f6 63bc 297c bd3c daf7 f53c
00000120: 6e9e cfbd a2d2 9a3d 3250 f43c 77ed b1bd
00000130: 4dfa 893d 413d b33d 994e a5bd 1d25 71bd
00000140: 33df abbd 820c c1bd 493d 283c ab90 3e3c
00000150: 7a50 92bc e7c8 dfbd 1c41 763d 8939 de3d
00000160: 357b 80bd 90f0 f43c 3496 7cbc 3354 ce3d
00000170: 433b a63d fca3 e33c 47ff bebb 8b58 89bd
00000180: e40d a1bd 6039 d3bd 1c57 8abd 2e70 1ebd
00000190: 2c1a 2f3d f2ec cabd 8f4a 04be 4b40 e53c
000001a0: 346b e93d c992 bdbc ad48 b6bd c3eb 58bd
000001b0: 4d41 b33c 032c 3fbd 0b45 ec3a 1de2 943b
000001c0: 70a8 e3bd 0b03 1b3c 4a2b b83d 32bc cfbd
000001d0: edcb 023e 0197 643c 38cb b3bc 2aa5 da3d
000001e0: 25e2 92bd d1a8 503d 56f1 223d 1de4 3c3d
000001f0: ee9e 89bd 0925 b13d a132 d03d 7722 0cbe
00000200: 8eef a83d 17d9 9bbd 21c3 5b3d 33dc 163d
00000210: 8292 90bd 2676 a93c 6dd5 003e e44d debc
00000220: 3577 2dbd 5859 a4bc 391f 3d3d ad41 ce3d
00000230: fcfb d2bd 146f 88bd da1c e1bc 060f a0bd
00000240: cedf 09be 7daf 4bbd b5de b7bb 50ef 00bc
00000250: db3d 6e3d 158a cb3c 989d e1bd 1c0f 6d3d
00000260: c673 ad3d 5f07 82bd 9c93 63bd ff1a 893d
00000270: a2c7 c53d b06d f73c 10ed 543d fb8d bdbc
00000280: 0650 073e 7f67 85bd d328 abbd 507e 913d
00000290: e84f b8bd f08d 033e 3e05 0dbd 4bb7 f23d
000002a0: 76a5 41bc b815 463d de97 e3bd 0e28 ccbd
000002b0: 35a9 e2bd 23c1 fcbb 9b59 e43b c87d c8bd
000002c0: 0e62 373d 4688 743d 9fa7 86bd ec0f 70bd
000002d0: ac66 d6bd 659c ce3d 0817 ec3d 3ecd febd
000002e0: 8072 493c 610f 0fbe 172b ccbd 1570 fabd
000002f0: 0137 2cbd d17f 953d 8409 d23d 8ea3 cfbd
00000300: 0298 b63d 276f c7bd e20b d03d 6443 dfbd
00000310: dfc5 ca3d 7fbd bb3d 289b 8dbb 0817 e63d
00000320: 5af2 66bd 8df8 06be 39af 9cbd 2337 1a3d
00000330: 9e35 29bd 6902 c7bd 54d0 a9bd 0b52 163d
00000340: a2ae c13d 5e91 013e 993c f83d ce87 c7bd
00000350: 3caf c23d 3bd1 093e 62d9 b6bd a8e4 9ebd
00000360: 6cad e73d efc4 ec3d bf3e 88bd 1138 ae3d
00000370: b995 ca3d ddc0 933c e4e6 443d 1030 c2bd
00000380: 0ba6 a7bc 5126 e33d 3f56 db3d ea4b e7bd
00000390: fcb5 8ebd 2ed1 e93d 9b1d 683d b9a9 b23c
000003a0: c947 96bd 2683 05bd e0fa 703d 408b 123d
000003b0: 0500 71bd 4083 4c3c 3d73 a93d de26 c6bc
000003c0: f94b 523d 6fdc 923c 4c35 d0bd d8b6 d73d
000003d0: 9baf 943c c941 32bc 8969 c3bd d9c3 cebd
000003e0: 6ac5 cebc 6af8 ff3c f596 17bc dbcc 9fbd
000003f0: 383f 5e3d 49cc ebbd 8d58 453d 447a 353d
-0.07272714 -0.027438544 0.009872311 -0.08586692 0.0057570143 0.015767714 0.045344215 0.015399536
-0.044400185 0.041134175 -0.10988032 0.09708481 0.015281702 0.10633133 -0.1084425 0.015953675
-0.009666029 -0.044666804 0.01854005 -0.075638175 0.043458052 -0.024357554 -0.08185959 0.054901242
0.07334201 0.093330584 -0.09073788 0.08994384 0.00046000042 -0.041598868 -0.10354381 -0.06518932
-0.09501438 0.031556346 0.0008255855 -0.122248664 0.03152399 0.07970784 -0.0015040764 -0.09280992
0.09857302 -0.11049061 -0.07333879 -0.03736824 -0.0011889029 0.06055726 0.050150655 -0.028753014
0.101972945 0.06924753 0.01639959 0.095219925 -0.015311113 -0.011118426 0.072405815 -0.08710851
-0.024021953 -0.05507269 0.023717485 0.085820846 0.041168593 0.0022700618 0.030807272 -0.056131747
-0.010367871 0.09077708 0.13159193 0.02543766 0.09133846 -0.013913729 0.023130493 0.030025411
-0.1013764 0.07559706 0.029823396 -0.08687871 0.06737194 0.08751918 -0.08071632 -0.058873285
-0.08392181 -0.09426214 0.010268518 0.011631171 -0.01786064 -0.10926991 0.060120687 0.10850818
-0.062735 0.029899865 -0.015416671 0.100746535 0.08116772 0.027788155 -0.0058287713 -0.06706341
-0.078639776 -0.10313678 -0.06754896 -0.0386812 0.04274957 -0.09908475 -0.12919067 0.027984759
0.113974005 -0.023141282 -0.089005806 -0.052959215 0.021881724 -0.046672832 0.0018025948 0.0045435564
-0.11116111 0.009461175 0.08992632 -0.10143317 0.12773104 0.013952018 -0.021947488 0.10676034
-0.0717204 0.050942246 0.039780937 0.046115983 -0.067197666 0.08649642 0.10165907 -0.13685022
0.082488164 -0.07609766 0.053652886 0.036831092 -0.07059194 0.02068622 0.12581415 -0.02713675
-0.042350013 -0.020062134 0.046172354 0.100711204 -0.103019685 -0.066618115 -0.027479578 -0.078153655
-0.13464281 -0.049727906 -0.0056112655 -0.007869557 0.05816446 0.024846116 -0.11016387 0.057875738
0.08469348 -0.06349062 -0.055560693 0.06694602 0.096572176 0.03020367 0.051983893 -0.02313899
0.1321412 -0.06513881 -0.08357396 0.0710417 -0.08999616 0.12847114 -0.034428827 0.118513666
-0.011819234 0.048360556 -0.11112951 -0.09968577 -0.1106743 -0.0077134534 0.0069686896 -0.09789616
0.044771247 0.059700273 -0.0657494 -0.058608934 -0.10468802 0.10088424 0.1152783 -0.124414906
0.012295365 -0.1397071 -0.09969156 -0.12228409 -0.042044643 0.0729977 0.10255721 -0.101386175
0.08915712 -0.097379975 0.101585165 -0.109015256 0.09901022 0.09167003 -0.0043214746 0.112348616
-0.05638347 -0.13180752 -0.076506086 0.03765024 -0.0413109 -0.097172566 -0.082916886 0.036699336
0.09457137 0.1265311 0.12120933 -0.097426996 0.095060796 0.13458721 -0.08928181 -0.077584565
0.113123745 0.115609996 -0.06652593 0.085067876 0.098918386 0.0180363 0.048071757 -0.094818234
-0.020464918 0.11091293 0.107098095 -0.11293776 -0.069683045 0.11416851 0.05666886 0.021809446
-0.07337911 -0.032595776 0.058833003 0.03577733 -0.05883791 0.012482464 0.08273933 -0.024188455
0.051341984 0.017927377 -0.101664156 0.105329216 0.018150141 -0.010879942 -0.095416136 -0.10095949
-0.025240619 0.031246383 -0.0092523 -0.07802745 0.05425951 -0.11513574 0.04818015 0.044306055

lstm.weight_ih_l1 f4 [256, 64]
00000000: ac6e 60bd 5939 8bbd b2a8 723d eea7 debd
00000010: ea77 de3d bc7b 633d 17ff d3bd 31fb ebbd
00000020: 89dd c9bd 083b 5fbd 1891 90bd d036 73bb
00000030: 4277 ce3d 3e50 173d a658 a2bd 3b79 223b
00000040: 36af fbbd 851c b03d 94d1 7e3d fbcd 83bd
00000050: 25b3 79bd a363 f93d 00b2 b23d 7dee b43d
00000060: 2b52 d5bd 0680 cf3d 68f8 f03d c68e e03c
00000070: 7546 8bbd d79c 9bbd 93e2 883d 4beb 6b3d
00000080: b6ca 98bd 50f8 683d ed49 a83d 328d 8ebd
00000090: 2798 903c 0a19 e6bd 39fc f03d a918 e83d
000000a0: 341d f93d 1da7 9ebd 7592 e3bd 3fdd 803c
000000b0: b92e 863a e916 b8bd ca48 91bc 1254 bdbb
000000c0: 4057 dcbd 667e 56bd dc41 a4bd 3d90 9f3d
000000d0: 285d edbd 5487 bcbc 58b1 333d 9d32 cebd
000000e0: 98a1 9e3d c68a 58bd d824 d5bc 223f 883d
000000f0: 3a40 e8bd 4300 f03d b347 ef3c 4bf7 8ebd
00000100: d2fb 093c f3a4 d3bd 5117 c33d b04b a23d
00000110: 92e8 d63d 6813 9f3c 9e7e 153e 90a1 3cbb
00000120: db5a a93d 275b 90bc 108d 573d a858 61bd
00000130: b614 9fbc 8682 02be 439e 58bd 58d8 7039
00000140: cc00 edbc 6dd1 90bc a86b 233d 6468 50bd
00000150: 2a98 43bc deed 87bd ac32 a83c f856 713b
00000160: dbd1 9b3d 0874 803d f649 9abc 697a 263d
00000170: e92a 9ebd 9b56 54bd dea8 f9bc 6788 0bbe
00000180: 900d 023d b5dc cabc 4bfc 04be 45b8 e03d
00000190: e415 57bd b385 d13d 3236 d13d 9e75 d5bc
000001a0: 8a19 0dbe 7034 b2bb f6a9 2e3d e4fb 6fbd
000001b0: 4898 26bd a0ad 213c 21ab dd3c acd7 bb3d
000001c0: d2d1 0bbd 773e 5d3d 7be4 f2bd af69 8ebd
000001d0: b1cd d3bd 8241 3d3d fc35 0a3e 139f b83c
000001e0: 367f d53d 8504 a23d 741a 873c c477 88bd
000001f0: 082f 18bd b0e2 dc3c d52a 963c 9a5e fabc
00000200: 0628 a0bd 2dba 9f3c 48a1 413d b827 b63d
00000210: 49cb 4abd 4e73 c5bd afe8 fdbc f7bf 89bd
00000220: c5f5 89bd e003 6bbd c016 553b 6719 873c
00000230: 2b67 c73b 9f57 403d 68ea c5bd 4a03 f53d
00000240: f7df e4bd 6301 afbd f2df 8dbd 9810 0bbd
00000250: 0637 f83d 8e2f b9bd 2b69 f8bd 8871 95bd
00000260: 6893 17bd ec08 11bc f6c4 19bd af82 bbbd
00000270: 89e5 4bba d0c6 99bd 45c6 dfbd 0b11 a93d
00000280: 0265 f7bc 0ea8 7cbd b6bc d63d c05c 523d
00000290: a6c5 bf3d f197 64bc 6f51 363b 6808 88bd
000002a0: 546c 97bd 4f8c ea3d 0e18 c1bc cac7 8d3d
000002b0: 2838 0dbe a3b3 293d 0f4d 89bc 2571 d8bd
000002c0: 4686 ed3c 44a0 a6bc 2493 b03d 6f8d 92bd
000002d0: 6941 983d dfc4 063e 9f78 243d 92a7 aebd
000002e0: f1a5 90bd 1ef2 6fbc af07 a8bd 4d6b 553d
000002f0: 56cd 6cbc 7d2c b2bd f067 363b 7fc0 46bd
00000300: 937f c23d ac4c cd3d 6f94 a83d e46d 0d3a
00000310: 404f f13c a6a9 c2bd 2666 a13c b1dd ddbc
00000320: 3193 ca3d 8e04 da3d d795 963d f914 eebc
00000330: 245c a33d 9b4e bcbc 021c 433c 9267 e5bd
00000340: 8e58 a13c c4f6 b33d 43d0 023e 7a12 dc3c
00000350: ccd4 b43d af17 833c dfb9 99bc df3a 1d3d
00000360: 3684 adbd 9447 acbb dbd6 2cbd 7ba9 f2bb
00000370: 5774 213d 7299 ecbd c70f 16bd 6fda b33d
00000380: e0d9 b2bd c479 66bd 8421 f8bd 8b38 70bc
00000390: c078 863d 6fa7 38bc ab21 9fbb 41dc 33bd
000003a0: a84c a5bd a2a6 863d 7421 9abd b1b2 e63d
000003b0: 1f0f a7bc a9b8 3fbd 002d 76bd f950 a6bd
000003c0: 5a82 4d3b 532f 12bc 575f cdbd c335 d83d
000003d0: d282 81bd 558d e83d 0e6f 743d ec86 c03d
000003e0: 0af7 ca3d 7bcc f0bd 7c13 723d 73e6 cabd
000003f0: b330 b2bc feed 513d 1b57 abbd 6fda c7bd
-0.054793045 -0.067980476 0.05924291 -0.10871874 0.108627155 0.055537924 -0.10351389 -0.1152252
-0.098567076 -0.054499656 -0.070589244 -0.0037111528 0.100813404 0.03694176 -0.079270646 0.0024791497
-0.12289278 0.0859919 0.062211588 -0.06435772 -0.06096186 0.12177207 0.08725357 0.088345505
-0.10416063 0.101318404 0.1176613 0.02741183 -0.06800548 -0.07598274 0.066838406 0.05759744
-0.07460539 0.056877434 0.08217225 -0.069605246 0.017650677 -0.112352446 0.11766858 0.113328286
0.12163773 -0.07746718 -0.11111919 0.015730498 0.0010237313 -0.08988745 -0.017734904 -0.005777844
-0.10758829 -0.052366637 -0.08020374 0.07791183 -0.11590034 -0.023013748 0.0438703 -0.100682475
0.07745665 -0.05286672 -0.026018545 0.06652667 -0.11340375 0.117188 0.029208994 -0.06980761
0.008421855 -0.10334196 0.095259316 0.079245925 0.10493578 0.019418433 0.14599082 -0.0028782822
0.082692824 -0.01762159 0.052624762 -0.05501619 -0.019419055 -0.12745103 -0.052885305 0.00022968778
-0.028931044 -0.017677987 0.03989759 -0.050880805 -0.011938134 -0.066371664 0.020531975 0.003682552
0.07608386 0.06272131 -0.018834095 0.040644083 -0.07723028 -0.051840406 -0.03047603 -0.13626252
0.031751215 -0.024763444 -0.12986867 0.109726466 -0.05251111 0.10230579 0.10215415 -0.02605706
-0.13779274 -0.00543838 0.042642556 -0.05858983 -0.04067257 0.009868056 0.02705914 0.091719955
-0.034135647 0.05401465 -0.118599854 -0.06953751 -0.10341967 0.04620505 0.13497156 0.02253679
0.10424654 0.07911018 0.016492106 -0.066634685 -0.037154227 0.026963562 0.01833097 -0.030562688
-0.07820134 0.019497955 0.04727295 0.088942945 -0.049510274 -0.09641133 -0.030994741 -0.067260675
-0.0673633 -0.057376742 0.003251478 0.016491605 0.0060852966 0.046958562 -0.0966385 0.11963518
-0.111755304 -0.08545186 -0.0692748 -0.033951372 0.1211987 -0.090422735 -0.12129434 -0.07297045
-0.037005812 -0.008852225 -0.037541352 -0.09155785 -0.0007778039 -0.075086236 -0.10926489 0.08255204
-0.030199531 -0.061683707 0.104852125 0.051357985 0.0936387 -0.013952241 0.0027819534 -0.06642228
-0.07393709 0.11452543 -0.02357104 0.06922872 -0.13790953 0.04143108 -0.016760377 -0.105684556
0.02899469 -0.020340092 0.08621815 -0.071558826 0.07434351 0.13161038 0.040154096 -0.08528055
-0.07062901 -0.014645128 -0.082045905 0.052104283 -0.014453253 -0.08699892 0.0027832948 -0.048523422
0.09496989 0.100243896 0.082314365 0.0005395098 0.029456735 -0.09505014 0.019702028 -0.02708325
0.09891356 0.106454 0.073527984 -0.029062735 0.07976559 -0.0229867 0.011908533 -0.11201395
0.019695546 0.08787301 0.12774758 0.026864279 0.0882965 0.016002504 -0.018765388 0.038386222
-0.08472483 -0.005257556 -0.04219709 -0.0074054576 0.03941759 -0.11552705 -0.03663614 0.08781897
-0.087329626 -0.05626847 -0.121157676 -0.014661918 0.06566 -0.011270388 -0.0048563085 -0.043911222
-0.08071262 0.065747514 -0.07525912 0.112645514 -0.020392952 -0.046806965 -0.06010151 -0.08120913
0.0031358213 -0.008922416 -0.1002795 0.10557129 -0.0632378 0.11355082 0.059676223 0.09400734
0.099104 -0.117577516 0.059100613 -0.09907236 -0.021751737 0.051252358 -0.083662234 -0.0975846

lstm.weight_hh_l1 f4 [256, 64]
00000000: 09af c5bd 3e65 9ebd 0951 253b 6686 b8bd
00000010: 750a 33bd 52fb 30bd e2eb 5b3d 4df2 b83a
00000020: 67a3 f6bd 1116 b83b db5b d3bd f9c6 803d
00000030: 5c7d d23d f94c a3bd 51b0 ae3d a3aa 2fbd
00000040: 40c8 ae3d 9b1e 9dbd d6c4 c2bc 9a12 d6bc
00000050: 1099 29bd becb 18bd 1bbd 7dbd 61ba 5ebd
00000060: e7bd b83d 5951 e4bd 6b47 cebc 15de af3d
00000070: c1e7 99bd 8b0c 1c3d 57c9 e8bc abf3 f0bd
00000080: d28a b2bd 4ecf c43d f2d2 883d e7d5 043d
00000090: bc2f 7e3d 47d7 c93d 18f4 98bd b650 ef3d
000000a0: cede 78bd e0bc 65bd 1da6 2ebd e2c7 d3bd
000000b0: a174 cc3d 7d24 ff3d cdc0 e1bd 8cfc f2bb
000000c0: 2009 103c f70c 9fbc fe27 f7bd 9406 94bc
000000d0: dd44 9abd 9496 16bd e46c 31bd ff39 a4bd
000000e0: 013e 07bd 7e35 08bc 7d9d d2bc 7ea4 e7bd
000000f0: 16f0 ee3d 4495 813c a7ea c1bd 52de 76bc
00000100: 6eff f2bc c599 943d e5df 59bb cedd cdbd
00000110: f984 e1bd fda0 9c3c 9093 4abc 72d4 d4bd
00000120: dbdc d73c 6c85 983d 5596 95bd 9020 0d3d
00000130: 9a78 3038 7fa1 a13d fe4f d1bc 31b0 25bd
00000140: 13d4 e33d 601a a9bd b2b5 8bbd bfe8 a6bc
00000150: c2b9 d63d a0fb ea3d fcce ac3d 8d28 7cbc
00000160: 4eae a7bd a1d9 98bd 317d 1a3d e997 03be
00000170: db1f 54bd 5c8d e9bb 9730 b53b 2b2a bcbd
00000180: 3d63 a8bd 328a c83d 6603 afbd 950d 38bd
00000190: d236 98bd 23d5 b13d 9814 b1bd 210a ac3d
000001a0: a8a8 8bba cadd 963d 9aa4 053c 84c6 bbbd
000001b0: d68a 82bd 2583 bf3d 2d42 4f3d b740 0bbd
000001c0: 0494 b3bd b17a 03be dd30 65bc fd5f 073e
000001d0: 2f05 ec3d 4853 88bc d581 c5bb 153c 8b3d
000001e0: 8846 c93c ca10 6b3d 618d ddbd e6ce a0ba
000001f0: a699 d5bc 6da7 fbbd 1525 3bbd a04b 01bd
00000200: b5ec c13c ac43 c0bd 41e1 8fbc 460d c53c
00000210: a029 13bd b161 713d 9483 a8bd cc26 e53d
00000220: cf19 a6bc a152 933c 5be6 f63a 9d23 9a3d
00000230: 0020 743d 1f77 6a3d a47e b33c ae7c 96bd
00000240: 33ac d8bd 55ab 4cbd a2ee e73c c010 03bd
00000250: 12fa b13d f54e 81bd a0b4 2c3d 2b7d c0bd
00000260: ccfd e4bd 3eb7 c53c 079e 58bd c546 5a3d
00000270: 460d b23d 84df 823c 58e0 95bd d281 8dbc
00000280: b53d 45bc 70e4 d0bc 8eaa 823d d988 013e
00000290: c812 a93d ddb0 86bd 8a11 bf3d 7a2a 05bc
000002a0: 5b50 853d 8836 96bd 0169 153d 4f72 ca3d
000002b0: e58a e03d d296 a43d a4d8 fabc 96f8 2a3d
000002c0: a151 aebc 9c75 57bd 4e99 ba3d af42 b13d
000002d0: 567d adbd 91d2 e13d d97d 09bd 7ea6 aa3b
000002e0: f501 953c b8c7 26bc 0d69 14bc 0ab8 b3bd
000002f0: 5809 cbbd 38a3 ea3c df5b ef3d 0328 dcbc
00000300: 6584 d43d 1d47 3d3d 6790 d83d 6a0d 20bd
00000310: d11e 723d b868 0dbe 5072 e7bb 2bbb b7bd
00000320: e50c 6cbd d36d 24bd efdf c6bd 22c0 783d
00000330: 9af8 a63a 104f 1a3d a029 5cbd 7b5c d8bb
00000340: b0a2 7c3d 7e04 4f3d 4c66 623d 9786 093d
00000350: 7182 e6bd 3292 933c 0c61 a5bd abf0 cfbd
00000360: 58fa b43b 5444 d0bd b17d a0bd fd82 8abd
00000370: 510f 83bd 625b 0b3c dd27 ee3c ea02 24bd
00000380: 611a 673d 1a64 d0bd f61c ddbd e6a9 5cbd
00000390: f670 033e a722 6bbd 5ca5 cfbd 563f c33d
000003a0: fb5a d73d e9ef 8c3c bee7 193d 202c 7b3a
000003b0: 0f4c 48bd 67be 2dbd 78fb 30bd a8cf 4bbd
000003c0: 17e0 b8bd 709a 8f3d e706 d0bd e5b4 e03c
000003d0: ffdb 22bd 1cbd 5fbc f93f 87bd b456 45bd
000003e0: e33b 89bd 3436 b83c 8292 e83d 6597 fc3d
000003f0: 5c15 84b9 8953 a5bc a930 573d 4d57 ffbb
-0.09652526 -0.07734154 0.0025225303 -0.090100095 -0.043711144 -0.043208428 0.053691752 0.0014110297
-0.12042885 0.005617865 -0.103202544 0.06287951 0.10277817 -0.07973666 0.085297234 -0.04288734
0.085342884 -0.07671853 -0.0237755 -0.026131917 -0.041405737 -0.03730368 -0.061947923 -0.054376964
0.09020596 -0.11148328 -0.02518054 0.08587281 -0.07514907 0.0380979 -0.028416319 -0.11765226
-0.08717884 0.09609853 0.066808596 0.032430556 0.06205724 0.09855514 -0.07468432 0.11685316
-0.060759358 -0.05608833 -0.042638887 -0.10340859 0.09983183 0.124581315 -0.11023102 -0.00741536
0.008791238 -0.019415362 -0.12068175 -0.018069543 -0.07532666 -0.036764696 -0.043316737 -0.080188744
-0.033018116 -0.008313535 -0.025709862 -0.11310671 0.116668865 0.015818246 -0.094685845 -0.015067654
-0.029662814 0.07255892 -0.0033245024 -0.100520715 -0.11011691 0.019119734 -0.012364283 -0.10392083
0.02635043 0.07447323 -0.07304064 0.034454882 4.207399e-05 0.07892131 -0.025550839 -0.040451232
0.11124434 -0.08256984 -0.06821765 -0.020374654 0.10484649 0.11473775 0.08437917 -0.015390527
-0.08187543 -0.074633844 0.037717048 -0.12850918 -0.051788192 -0.007127447 0.005529474 -0.091877304
-0.08222053 0.09791984 -0.0854557 -0.044934828 -0.07432331 0.08683231 -0.08646506 0.084003694
-0.0010655122 0.07366522 0.00815692 -0.09168723 -0.06374137 0.09351186 0.05060022 -0.033997264
-0.08768466 -0.12839772 -0.013988701 0.1322021 0.11524426 -0.016641274 -0.00602744 0.06798569
0.024569765 0.05738906 -0.108179815 -0.0012268692 -0.026074242 -0.12287793 -0.04568966 -0.031566262
0.023672441 -0.093879074 -0.017563464 0.02405418 -0.03592837 0.058931056 -0.082282215 0.111890405
-0.020275978 0.017983736 0.0018836962 0.07526324 0.05960083 0.05724251 0.021910973 -0.073479995
-0.105797194 -0.049968082 0.028312031 -0.031998396 0.08690275 -0.06313888 0.042164445 -0.09398874
-0.111812204 0.024135228 -0.05288508 0.053290147 0.08693938 0.015975721 -0.07318181 -0.017273817
-0.012038638 -0.025499552 0.06380187 0.1264986 0.08255535 -0.06576703 0.09329517 -0.008127803
0.06509467 -0.0733462 0.036477093 0.09885084 0.10963992 0.08036579 -0.03062088 0.041740976
-0.021279158 -0.052602395 0.09111272 0.08655297 -0.084711716 0.110264905 -0.033567283 0.0052078357
0.01818941 -0.010179453 -0.009058249 -0.08775337 -0.099138916 0.028642282 0.11687445 -0.026874548
0.10376815 0.046210397 0.105744176 -0.039075293 0.05911142 -0.13809478 -0.0070631877 -0.08971246
-0.057629485 -0.0401438 -0.09710681 0.060730107 0.0012738884 0.037673056 -0.053750634 -0.0066028214
0.06167859 0.050541393 0.05527334 0.03357562 -0.112553485 0.018014047 -0.08075151 -0.10153326
0.0055230074 -0.101692826 -0.07836474 -0.06763265 -0.06399406 0.008505674 0.029071743 -0.04004184
0.05642164 -0.10175343 -0.107965395 -0.053872965 0.1283606 -0.057406094 -0.10138962 0.09533565
0.105154 0.017204242 0.037574522 0.0009581465 -0.04890066 -0.04241791 -0.04320857 -0.049758583
-0.09027117 0.070118785 -0.101575665 0.027430007 -0.039760586 -0.013655927 -0.06603999 -0.04817839
-0.067008756 0.022486784 0.11356069 0.12333564 -0.00025192916 -0.020181434 0.05253664 -0.0077923895

lstm.bias_ih_l1 f4 [256]
00000000: f8c2 a3bd 1fd9 d43d 7057 7b3d 4b14 af3d
00000010: fef4 1e3d f7c9 e0bd e7c8 a8bc b224 08bd
00000020: ada1 a6bd cc09 183c df81 b7bd 18f5 0d3e
00000030: 1621 583d 5818 853d 906d f63d 38ed cbbd
00000040: dd29 083e 2ba5 29bd 138a 0b3e d602 b7bc
00000050: 74f1 be3d b7c5 5bbd 6d8a 113d f965 afbd
00000060: c491 90bd 0e8f cdbd ad40 46bd 5112 b83c
00000070: fd27 82b8 fa2a c5ba c132 843c 5d4e 073e
00000080: a4cd 733d f76b 1a3d 8bac bfbd afef 973d
00000090: e2aa bfbc 727d 443d 5a0b b1bd dbf3 c4bd
000000a0: ca17 20bd d296 77bd b7e9 a0bd acba 743d
000000b0: 856a 263d 1c3a bc3d 7b2d 9f3d c498 d73c
000000c0: dcd8 91bd 88bf e4bd c0d4 803d 40f6 17bd
000000d0: ed20 093e 6c0c 26bd cc5b b43d dec7 913d
000000e0: 9340 df3d 886d fb3d 04f0 c03d 2f33 91bd
000000f0: f74c bd3c c834 c43d e874 c8bc 2fb2 d0bd
00000100: 5225 003c c974 063e 3af2 77bd 6d58 00bd
00000110: c351 803d 1281 963d 447d bc3c 015a 0ebe
00000120: 1beb e23d 0c11 9c3c bb7a cd3c bba9 363c
00000130: 4c39 4fbc 7ad3 a33d 309d bc3c 391d d5bd
00000140: 7413 8cbd e329 abbd f256 113e 36f6 1f3d
00000150: 262b 77bd cd3f 14ba 9cec 023c c932 b3bd
00000160: dccc d7bd 2e57 563c 4b2f 0d3e a38f 573d
00000170: 77b6 913d bb05 a43d 866e f0bd d8cd 1a3e
00000180: 0340 c8bd a84a 453d 22bc b0bd edc7 aa3d
00000190: 1635 58bd 9e8d cf3d fa6f 973d 1691 04be
000001a0: 51af 8dbc 2bb3 d5bc 8294 cb3d 256d 24bd
000001b0: e364 e4bd cdb6 da3c beb9 32bc cb01 913d
000001c0: 5c8d b53d 1d11 c53d 3dd6 84bd 73dc 903d
000001d0: 75f4 69bd 506b 1b3c c885 b73d d093 8a3c
000001e0: 5682 bc3d 4b07 c23d c76d c8bd 7735 0e3d
000001f0: 675d bf3c fad2 34bd 0eed 62bd 8f00 b5bd
00000200: 8b9c 683c 59c1 123e f483 2dbd cd4a 6cbd
00000210: 197d 86bd 3190 07bd f615 b0bd 1495 c9bd
00000220: 67f9 a63c 1171 fcbd 15aa a8bd 800e 29bd
00000230: 23d5 073e f989 0b3e 6b23 f53d 0f7e 26bd
00000240: 2077 073e f2e5 c3bc c446 ccbc f6a6 cebd
00000250: 7478 a43c 669a 0abd ed4e db3c f6bb c1bd
00000260: 4ae1 4e3d 65e5 03be d492 4d3c f67c b6bc
00000270: ca0c 91bd c1e0 a33c 2fa3 4b3c 8d33 173e
00000280: 3baa b83d e77d 843d 38bd e23c 1e6c be3d
00000290: 022c 9bbd 83e2 3d3d 77c9 f93d 44d3 c1bd
000002a0: f2a4 0a3d 4fd8 8fbd c39d b53d 3bfe d4bd
000002b0: 0c68 62bd 8929 d7bd 312f e5bd b3e0 7f3d
000002c0: 1766 86bd 69b1 b2bd 09e8 d1bc 62d8 e53d
000002d0: 0dd6 9a3d 473a 833d 520c 013d ed74 853d
000002e0: 02f4 c1bd 2268 eb3c ae0e a63d 6ee4 69bd
000002f0: 605b 8a3d 17ef 15bd aec1 243d 69db bcba
00000300: e190 81bd 0e56 d8bc 886e dbbc 0719 ee3d
00000310: 59a6 3dbc a5f8 60bd 09db abbd dd56 c9bc
00000320: e29d a03d b4dd c4bd 5102 38bd bbf3 083e
00000330: e8a6 8c3c c3c4 6c3d f257 313d e11a fb3d
00000340: e194 08bd 44a7 913c 94db eb3d 4170 2abb
00000350: 58de 64bd 9556 af3b a525 543d b6b2 8ebc
00000360: 2fb8 bfbd 372c 06bd e2ba 7ebc 4acf d63b
00000370: 177e e7ba 6233 eabd d0b1 ef3a db6c 5a3c
00000380: 3708 7d3d 687d ba3d 134a 793d 3cf0 c23b
00000390: 7c28 84bd fa88 d43d 48be 7abd 3a68 b53d
000003a0: d51c 9f3b 9437 613d e900 9b3c 273a 16bd
000003b0: 2038 ea3c d06e b83d e339 1d3c ce12 57bd
000003c0: 2476 08bd 0073 a33c e325 00be ea0b 2f3d
000003d0: f4e3 c63d 8bc7 943d efed ce3d 07b4 dabd
000003e0: dbcd 59bd b31f fe3c a22a c5bd c321 9e3d
000003f0: 525e 413c ea5e e0bc af63 53bc ddeb 09bd
-0.07996172 0.10392975 0.061362684 0.085487925 0.03880786 -0.10976022 -0.02060361 -0.03323812
-0.08136306 0.0092796795 -0.08960318 0.13863027 0.05276593 0.06498784 0.12032616 -0.09957355
0.1329722 -0.041417282 0.1362689 -0.02234022 0.09323397 -0.053655352 0.035532404 -0.085643716
-0.070590526 -0.10037051 -0.048401523 0.022469671 -6.2063315e-05 -0.0015042715 0.016137483 0.13213487
0.059522286 0.03770062 -0.09359082 0.07418763 -0.023396913 0.047971196 -0.08644743 -0.09616824
-0.039085187 -0.060446568 -0.078570776 0.059748337 0.04062893 0.09190771 0.077723466 0.026317962
-0.07121441 -0.11169344 0.06290579 -0.037100077 0.13391466 -0.04053919 0.08806571 0.071182
0.109009884 0.12276751 0.09420779 -0.070898406 0.023107989 0.0958038 -0.024469808 -0.10190236
0.007821398 0.13130488 -0.06053374 -0.03133433 0.06265595 0.07348837 0.02300895 -0.13901521
0.11079999 0.019051097 0.025082937 0.011148865 -0.012647938 0.0799932 0.023024172 -0.104059644
-0.06839648 -0.08357599 0.14193323 0.039053164 -0.060343884 -0.0005655259 0.007990982 -0.08749921
-0.10537121 0.013082309 0.13787572 0.052627217 0.071148805 0.080089055 -0.11739831 0.15117586
-0.09777834 0.0481669 -0.086296335 0.08338914 -0.052785 0.10134433 0.07394405 -0.12945971
-0.017295511 -0.02608641 0.09940435 -0.04014315 -0.11152055 0.026698494 -0.010908542 0.0708042
0.08864853 0.09622405 -0.06486175 0.07073297 -0.057117898 0.0094860345 0.089610636 0.016916186
0.09204547 0.09474047 -0.09786563 0.034718957 0.023359967 -0.044146515 -0.055401854 -0.08837997
0.014197479 0.14331569 -0.04236217 -0.057688523 -0.06566829 -0.033096496 -0.08597939 -0.098428875
0.020382596 -0.12326253 -0.082355656 -0.041273594 0.13264899 0.13626851 0.11969646 -0.040647563
0.13229036 -0.023913357 -0.024936087 -0.10090439 0.020076968 -0.033838652 0.026771033 -0.09459679
0.05050782 -0.12880476 0.012547214 -0.022276383 -0.070825174 0.020004632 0.012429043 0.14765759
0.09016844 0.064693265 0.027678117 0.092979655 -0.07576753 0.046358597 0.121966295 -0.09464124
0.03384871 -0.070236795 0.08867981 -0.10400053 -0.055275008 -0.10505969 -0.11190642 0.06247015
-0.06562441 -0.087252446 -0.025623338 0.11222912 0.07560358 0.064076 0.03150589 0.065164424
-0.09470369 0.028736178 0.08108269 -0.057102613 0.0675571 -0.036604967 0.04022377 -0.0014408651
-0.063264616 -0.026408222 -0.026786104 0.11625867 -0.011575305 -0.054924626 -0.08391387 -0.024577552
0.07842614 -0.09612599 -0.044924084 0.13374226 0.01716943 0.057804834 0.04329676 0.12260986
-0.033345107 0.017779954 0.115164906 -0.002600685 -0.055876106 0.0053508976 0.051793713 -0.0174192
-0.09361302 -0.03275701 -0.015547486 0.0065554725 -0.0017661479 -0.11435582 0.0018287245 0.013331617
0.061775412 0.091059506 0.06086166 0.0059490483 -0.06453034 0.10377689 -0.061216623 0.0885777
0.004855732 0.054984644 0.018921332 -0.036676552 0.028591216 0.09005511 0.009596321 -0.052508168
-0.033315793 0.019952297 -0.12514453 0.04273597 0.09711447 0.07264622 0.10103976 -0.10678869
-0.053174835 0.031020975 -0.09627272 0.07721283 0.011802273 -0.027389009 -0.012902184 -0.033672202
