models/archived/cnn_model.pt (torch, 138392 bytes, 8 tensors)

conv1.weight f4 [64, 3, 3]
000000 29 06 0d be 62 66 d8 bd 63 2f 0f 3e 1e 2e b7 be
       -0.13771881 -0.10566403 0.1398292 -0.35777372
000010 b8 a8 da bd 5a 15 95 3e fd 2e 01 be ea 13 bd be
       -0.10676712 0.29117852 -0.12615581 -0.36929256
000020 d7 e9 05 3d 38 92 71 3e 43 e1 97 3e 45 a8 83 be
       0.03269371 0.23590934 0.2966405 -0.25714317
000030 13 48 aa bd 6a db 97 3e 98 c7 8e 3d 5e 2d 52 3e
       -0.08314528 0.29659587 0.06971663 0.20525119
000040 0d fd 44 be c9 30 f8 bd 87 9c 0d 3e d2 4e 7a bd
       -0.19237156 -0.1211868 0.13829242 -0.061110325
000050 e6 97 a2 be a4 48 ca bd 9d 99 e9 3d 57 df 80 be
       -0.31756514 -0.09877136 0.114062525 -0.25170395
000060 93 d5 25 3e fa a7 2f bd 4c 50 86 3c 3d 91 c4 bd
       0.16194753 -0.042884804 0.01639571 -0.095980145
000070 41 0f 31 bd 7a 44 76 be 4f 2c 88 bd 5d ed 92 3e
       -0.043227438 -0.24049559 -0.06649076 0.2869672
000080 6b 6e 24 3d 5a 73 4c 3e 20 4f 1a be 05 96 72 3e
       0.040144365 0.19965878 -0.15069246 0.2369004
000090 53 c2 8f 3e b9 18 31 be 71 c4 df 3b 51 e2 92 3e
       0.28077945 -0.17294587 0.0068288376 0.2868829
0000a0 46 88 ad be e0 b5 59 3e 7f 34 53 be 58 33 a3 3e
       -0.3389303 0.21260786 -0.20625494 0.3187511
0000b0 1d 08 1e 3e fb 6f b0 be 34 7b bb 3d 07 57 76 3e
       0.15432782 -0.34460434 0.091543585 0.24056636
0000c0 c1 88 77 3c d8 43 0b bd 6f 81 ce bd dc fc a1 3e
       0.015108288 -0.034000248 -0.10083281 0.3163823
0000d0 23 ea d2 3d 8d c8 21 3e a8 db 5a 3e 8c 7f 2f 3e
       0.10298564 0.1579916 0.21372855 0.17138499
0000e0 82 6a 87 be 34 c9 ec 3c 90 d6 0b 3e f7 ef 31 3e
       -0.26448447 0.028904535 0.13656068 0.17376696
0000f0 f2 72 ab bd 76 58 e7 bd 35 30 4b 3e dc dc f6 bd
       -0.083715335 -0.112961695 0.19842608 -0.12053844
000100 d3 df 3e 3d 1e a3 84 be 8f d8 42 bd a8 03 ab 3e
       0.046600174 -0.259057 -0.047569808 0.33401227
000110 ac 63 1f be 7c 4a 89 3e 2d ce 14 be a0 0e 00 be
       -0.15565366 0.2681464 -0.14531775 -0.12505579
000120 19 60 7e 3e ec df 1e 3e 8f 73 3f 3d a7 dd 61 be
       0.24841346 0.15515107 0.046741065 -0.2205721
000130 76 cd 67 be 3a 27 16 3e 36 69 03 3e 16 4d e2 3c
       -0.22636971 0.14663401 0.12833104 0.027624648
000140 82 86 2e 3e 63 48 35 3c 1b f4 7a 3e e9 95 a0 bd
       0.17043498 0.011064622 0.24507181 -0.07841093
000150 8c ea 04 be e8 b9 2f bc a0 29 45 3d 64 43 45 be
       -0.12980098 -0.010725476 0.0481354 -0.19263989
000160 bf 90 1b 3e 34 82 57 3e 84 a2 a4 3e 7d c4 0e 3e
       0.15191935 0.21045762 0.3215524 0.13942142
000170 84 0f 76 be e0 14 85 3e 95 f9 a5 be c5 9d 1b 3e
       -0.24029356 0.2599249 -0.32416978 0.15196903
000180 1e da 64 bc 62 22 a4 be 23 c2 92 be 53 75 0e 3e
       -0.013968019 -0.32057482 -0.2866374 0.13911943
000190 44 5c 14 be 90 75 7c 3e 93 c8 15 be 21 98 ae be
       -0.14488322 0.24654222 -0.14627294 -0.3410044
0001a0 97 41 78 bc 13 21 74 3e ca a6 9b 3e e1 79 13 3e
       -0.015152357 0.23840742 0.30400687 0.14401962
0001b0 06 6b b1 3c 5b 03 7f 3e ed 56 2e be 1f 4c 3d be
       0.021657478 0.24903624 -0.17025347 -0.18486069
0001c0 b1 15 33 3e b0 c7 43 be 28 61 3d bd 51 ec 22 3e
       0.17488743 -0.19119143 -0.046235234 0.1591046
0001d0 d1 03 98 be 8c 98 4d be 4f 9d 38 3e c3 45 7f be
       -0.29690412 -0.20077723 0.18028758 -0.24928956
0001e0 d0 84 89 3e b5 c4 85 bd 62 99 79 3d 83 61 50 be
       0.2685914 -0.065316595 0.060937293 -0.20349698
0001f0 5a c6 92 3d 08 5f aa be 0b 43 59 be 63 75 27 3b
       0.07166739 -0.33275628 -0.21216981 0.0025552146
000200 cd 86 26 be 56 f2 8a be 10 f7 06 3e b3 b1 8b 3e
       -0.1626236 -0.27138013 0.13180184 0.2728401
000210 d7 ec 33 3d 43 0d 93 be 1c 9d 87 bd 74 03 3e be
       0.04392704 -0.28721055 -0.06621763 -0.18556005
000220 b6 cd ba bd fc 6a 91 be 02 c3 70 bc ff 09 66 3e
       -0.091212675 -0.28401935 -0.014694931 0.2246475
000230 35 52 a0 bd 3c d1 38 be 80 2d ec bd 4d dc 5c 3e
       -0.0782818 -0.18048567 -0.11532116 0.21568413
000240 02 1f 03 3e bb 08 58 3e 15 4b 79 3e d7 80 86 bd
       0.12804797 0.2109708 0.24345048 -0.06567543
000250 d9 c6 87 bd 65 8c 02 be 19 b7 6b be 8a a5 64 bb
       -0.06629724 -0.12748869 -0.23019065 -0.0034888708
000260 b0 55 0c 3e 59 aa 86 3e a5 07 f7 3c 57 e5 90 3e
       0.13704562 0.2630184 0.030155012 0.28299972
000270 9f fc 89 be 03 3e d8 3d c8 6e 16 3e 52 ad b1 bc
       -0.26950547 0.10558703 0.14690697 -0.02168909
000280 e8 71 9d be 41 c1 97 3e ba 73 82 be fa 07 68 3d
       -0.30750966 0.2963963 -0.25478917 0.056648232
000290 05 bb bb bc b0 44 12 3e 95 b7 d6 bc 0f 0a 26 be
       -0.022916326 0.14284015 -0.026210586 -0.16214775
0002a0 4d 9f 07 3e c3 9f 98 3e 3c eb 85 3d 8b f2 38 3e
       0.13244362 0.2980939 0.06539008 0.18061273
0002b0 5a 6f 83 be 35 bc af be 32 f4 55 3d 3f ca 13 be
       -0.25670892 -0.34323278 0.052234836 -0.1443262
0002c0 98 8d 95 3d dd ea 71 be 97 56 6b be 43 a6 29 be
       0.073023975 -0.2362475 -0.2298225 -0.1656733
0002d0 4b 8f 16 3e c6 7b 4a 3e 56 bf 25 be 4c d1 07 3d
       0.147031 0.19773778 -0.1618627 0.033158585
0002e0 25 59 ff 3d e9 8c 6c be 02 7f cf bd 8e 3f 4d be
       0.12468175 -0.23100628 -0.10131647 -0.20043775
0002f0 b6 5f ab bd 5a 38 9f 3d a8 8c 00 be 18 fe 15 3e
       -0.08367865 0.0777442 -0.12553656 0.1464771
000300 e8 d7 97 3e 3b 24 35 3b be 48 9f bd 9c d1 a5 be
       0.2965691 0.0027640003 -0.07777546 -0.32386482
000310 6b 5e f0 3c 28 52 06 3e d4 38 62 3e 62 51 26 3e
       0.029341897 0.13117278 0.2209199 0.16241983
000320 54 41 0c 3d 10 46 c8 bd 82 43 ec 3d 4a 2c 0d 3e
       0.03424199 -0.09778988 0.115363136 0.13786426
000330 c6 07 32 3e 95 74 84 3e e9 2d af 3d d8 0b 48 3e
       0.17385778 0.25870195 0.085536785 0.19535768
000340 d9 9b 70 be 6a d3 53 3e 28 fa c9 3d ab 74 96 3e
       -0.23496951 0.20686117 0.09862167 0.29385886
000350 56 9a 94 3d 4b 47 7d be 73 c8 05 3d 3b 49 22 3e
       0.07256 -0.24734227 0.032661866 0.15848248
000360 40 2a 7d 3e 5a d6 9c be bb a6 06 3e 80 0b 18 3e
       0.24723148 -0.30632287 0.1314954 0.14848137
000370 5c af 45 3e 16 be a0 3d 26 5f 8f 3e cc 24 73 bd
       0.19305176 0.07848756 0.2800228 -0.059361264
000380 c7 09 6a 3d 65 12 09 ba db 25 8b 3e f2 31 66 be
       0.05713823 -0.0005228876 0.2717732 -0.2247999
000390 87 13 bb 3d 4b ae 28 3e 82 cf a9 bd 4e 4c 8d bd
       0.09134584 0.16472737 -0.08291532 -0.068993196
0003a0 7e 63 94 3c 75 da 34 3e 4a e0 8c 3e a7 5b 84 3e
       0.018113848 0.1766146 0.2751487 0.25851175
0003b0 87 c5 a5 3e 65 11 88 3e 23 74 56 be af fe 9c be
       0.32377264 0.2657577 -0.2094274 -0.30663058
0003c0 4c d0 90 be ce 9a 28 bd cf f8 ee bd c4 dd d9 bd
       -0.28283918 -0.04116326 -0.1166855 -0.106380016
0003d0 5a 6f 73 3e ff e4 95 3d 8b 34 26 bd 59 ba 0d be
       0.23772946 0.07319068 -0.040577453 -0.13840617
0003e0 4d 2f 21 3e ab 33 9b be bf f6 07 bd a1 4d ae be
       0.157407 -0.30312857 -0.0331943 -0.340436
0003f0 38 44 a1 be b5 bd 3d be c1 70 80 3d 41 32 55 3e
       -0.3149736 -0.18529399 0.06271506 0.20819952

conv1.bias f4 [64]
000000 bb d7 e1 3d 29 2f 84 3e 85 56 93 3e 03 ae f7 3d
       0.110274754 0.2581723 0.28776947 0.12093737
000010 0d f9 a5 3c 42 6d ff bd 8b a3 62 3e d1 96 36 be
       0.020260358 -0.12472011 0.22132699 -0.1783097
000020 8f 69 1f be 14 5d dd bd af a0 44 3d 7d 58 ae bd
       -0.15567611 -0.10808769 0.048004802 -0.085129716
000030 58 4c 05 bb e2 fb df bd 48 94 6c 3d 4e d7 7e 3e
       -0.0020339694 -0.10936715 0.0577586 0.2488682
000040 ab 98 ef bd cb 5a 97 be 8e 85 80 3e 9a 90 2a 3d
       -0.11699041 -0.29561457 0.25101894 0.04164181
000050 1b 86 5d 3e a7 fe 44 be a3 fc 8c be be e1 99 be
       0.21633188 -0.19237767 -0.27536497 -0.3005504
000060 cf 65 a2 bd 38 d9 9a 3d 54 cc 0d bc 02 85 f0 bc
       -0.07929575 0.075609624 -0.008654673 -0.029360298
000070 11 94 54 3e 52 ee 1e be cc d6 15 3e 62 57 a7 3e
       0.20759608 -0.155206 0.1463272 0.32683855
000080 9f f7 cc bd b6 e0 94 3d 89 3a e8 3d d5 86 41 bd
       -0.100081675 0.07269423 0.1133929 -0.047247726
000090 fb d0 6b 3e 17 19 2a be c9 ae 85 be ff 3d 69 3e
       0.23028938 -0.16611134 -0.26109913 0.22777556
0000a0 6c 24 c1 3d 0e 97 91 3d b0 eb 69 3e 80 2d 6c bd
       0.09430775 0.071088895 0.22843814 -0.05766058
0000b0 27 59 0a be df 47 73 be 31 68 36 3a b5 cc 03 3e
       -0.13510571 -0.23757885 0.0006958275 0.12871058
0000c0 91 b2 ae be f6 32 05 3e f0 6e a0 bd 11 13 a2 be
       -0.3412061 0.13007721 -0.0783366 -0.31655172
0000d0 fb 93 3f 3e 3a 8d 2e 3e cd bd 94 3d 63 69 ab 3d
       0.18708794 0.17046061 0.07262764 0.0836971
0000e0 23 8e 73 3e f6 fe b1 be c8 58 ab bd 1d c1 aa 3d
       0.2378469 -0.34764832 -0.08366543 0.08337615
0000f0 58 08 24 be 33 03 93 3e 73 ea 04 bd 0a c9 2c 3d
       -0.16018808 0.28713378 -0.03245015 0.042183913

conv2.weight f4 [128, 64, 3]
000000 98 9b db bd 00 3c 17 bd 97 5a 49 3d b5 54 a5 bd
       -0.107230365 -0.036922455 0.04915866 -0.08072797
000010 21 b0 33 bd 4c 81 a6 bc 29 4a 99 bd 5d fc 08 3b
       -0.04386914 -0.020325325 -0.07484848 0.0020902373
000020 41 98 8b 3c d9 aa 86 bd 86 e9 ee bc 7d c7 99 3c
       0.017040374 -0.06575555 -0.029164087 0.018771881
000030 39 2c 60 3d 48 33 c2 3c 2d 35 ca 3c de 15 f3 bc
       0.054729674 0.023706093 0.02468356 -0.029673513
000040 b6 e5 b1 3c ee 9c 9c bb dd 55 7d bd d5 c6 26 bd
       0.02171598 -0.0047794497 -0.061849464 -0.040716965
000050 3c 79 83 3d d7 06 a5 3c d4 1f 49 bd 0e dd 78 bd
       0.06419608 0.020144863 -0.04910262 -0.06075769
000060 07 02 ca 3c 1a 77 46 bd 31 9e 05 3d bb 2d b4 bb
       0.02465917 -0.048453428 0.032621566 -0.0054986156
000070 03 aa e3 3d d7 d3 7b bd 18 9b 07 3c 33 95 bb bd
       0.111164115 -0.061481323 0.008276723 -0.09159317
000080 a3 71 3f bd a0 5d ad 3c de 89 17 3d 7d b1 8d bb
       -0.04673923 0.021162808 0.036996715 -0.004324137
000090 95 fe e2 bc 50 13 74 3d 32 87 a6 3c 6c 9a be bd
       -0.027709285 0.05958873 0.020328138 -0.093067974
0000a0 05 c2 0c 3e 59 b7 b5 bc cc 2a b0 3b 0b bd 2e 3d
       0.13745888 -0.022182154 0.0053761955 0.042660754
0000b0 03 ad c2 bc 4f 82 b1 bc 85 c8 dc 3c 7c 69 ad 3c
       -0.023764139 -0.021668581 0.026951084 0.021168463
0000c0 96 65 1b 3c 94 15 10 3d 3b 4f 46 bc be 2e 7e 3d
       0.009484669 0.03517683 -0.012103851 0.062056296
0000d0 43 a2 78 bd ca f8 d3 3d be 5e e2 3c 03 af 7b 3c
       -0.06070162 0.10350187 0.027633067 0.01536155
0000e0 0c 44 73 bd 74 e8 99 3d c8 94 27 bd 21 2a 42 3d
       -0.059391066 0.0751504 -0.040913373 0.04740346
0000f0 26 f4 e5 3c 06 c2 54 bc 4d c0 c8 bb 84 9a b4 bb
       0.02807052 -0.012985712 -0.0061264397 -0.0055115838
000100 2a b3 32 bd 16 37 09 3d 60 68 93 bd e5 59 e1 bb
       -0.043627895 0.0334998 -0.07197642 -0.0068771713
000110 40 41 4b 3d 70 82 80 bb 92 d8 2b bd 0b c4 9d 3d
       0.049622774 -0.0039217994 -0.041954584 0.07703408
000120 d6 f7 4c bc ea ab a2 bd a9 6b de 3d bb 6f bf 3c
       -0.012510261 -0.07942946 0.10860378 0.023368707
000130 f8 ea c2 3d d2 f6 83 bd c3 d8 49 3c 48 62 9f bc
       0.09517473 -0.064435616 0.012319746 -0.019456044
000140 92 99 8c 3c ed d2 8f bc 34 0d d7 3d 91 6e b9 bc
       0.017163072 -0.017556632 0.10500565 -0.02263573
000150 b2 23 47 bc b9 d7 1d bd 32 58 ec 3b 56 a8 a4 bd
       -0.0121545065 -0.038535807 0.007212662 -0.0803992
000160 7b c4 98 bd a9 2c df bc 9f cc ab bd 4d 42 3f bd
       -0.07459351 -0.027242975 -0.08388638 -0.04669409
000170 9d b7 3c bd fa f2 08 3d af 9d 1e 3d 29 00 ee bd
       -0.046073545 0.033434846 0.038724598 -0.11621124
000180 d6 f2 0f 3d 8a 5e 0a bd ab 46 a3 bc c8 fd 6c 3d
       0.035143696 -0.033781566 -0.019931158 0.057859212
000190 c9 42 4e 3d 24 7e 36 3d c5 ca 37 bd ba 5c 22 3d
       0.05035666 0.04455389 -0.04487111 0.039639212
0001a0 1e fe 7f 3d ce aa d4 bd 7b 6c 77 bd d7 3e ad 3c
       0.062498204 -0.10384141 -0.06040619 0.021148128
0001b0 0a f3 f7 3c b2 25 ae bc a9 33 67 3d ce dd 6d bd
       0.030267257 -0.021258209 0.05644575 -0.058072858
0001c0 67 51 7a bc ac 63 4a bd 40 fa 18 bd 01 11 c1 3b
       -0.015278197 -0.04941146 -0.037348032 0.0058919196
0001d0 37 18 21 3d 5a 1e 52 3c 21 92 bf bd af 77 cd 3d
       0.039329734 0.012824619 -0.09354044 0.100325935
0001e0 f0 cc 6a bd 4b 6e 5a 3d d5 1b ab bd 89 a6 e1 bb
       -0.05732435 0.05332784 -0.08354918 -0.0068863076
0001f0 0b cb 03 3e f2 1b b6 3c 2e 8f 4d bd ff e2 a0 bd
       0.12870423 0.022230122 -0.050185375 -0.07855796
000200 19 b5 52 3d 50 17 cc bb 50 67 84 3d 00 1a 43 bb
       0.05144224 -0.006228365 0.06465018 -0.0029770136
000210 45 33 37 3c 6f 0a 57 3c 34 b6 bc 3d 98 43 40 bd
       0.011181657 0.013125046 0.0921444 -0.046939462
000220 38 12 d2 3b 0c a1 a0 bc 72 d7 9d 3d eb a9 b7 bd
       0.0064108633 -0.019608043 0.077071086 -0.08967956
000230 49 49 20 3d 24 13 58 bd 1b 49 a9 bc 25 5d f9 bc
       0.03913239 -0.05275263 -0.020664742 -0.030439923
000240 ee 07 a7 bd 7e bd 5f 3d cc 9d ba bc ac 36 c0 3d
       -0.08155809 0.054624073 -0.022780322 0.09385428
000250 9e a3 11 bd 20 78 6e bd 50 ac 0f 3c 7e 24 e0 3c
       -0.035556428 -0.05822003 0.00876911 0.02736115
000260 e6 15 72 3d a7 ae 58 bd 7a 65 99 bc b3 86 74 3d
       0.059102915 -0.052900936 -0.018725146 0.05969877
000270 be 84 cb 3c a4 51 4c 3d a6 a9 c6 3c 29 53 19 bd
       0.02484357 0.049882546 0.024250817 -0.037432823
000280 51 cd 8e bd 49 44 3f 3d 96 74 8d bd 41 77 b8 bc
       -0.06972755 0.04669598 -0.06907003 -0.022517802
000290 73 ae 37 bd 3a 47 c3 3c fe bf 76 bd 0c 69 9d 3c
       -0.044844102 0.023837674 -0.06024169 0.01921513
0002a0 f7 b4 c1 3c 1c 80 37 3d de f1 e4 bd cb 87 27 3d
       0.023645861 0.04479991 -0.11178945 0.040900987
0002b0 47 7a 92 bc 7c 2b b6 3d 7b 3c c5 bd 6f 54 82 bb
       -0.017880572 0.08895013 -0.09630676 -0.0039773504
0002c0 ca 10 9b bc de 32 3b 3d a7 90 11 bd 21 b3 af 3c
       -0.018928904 0.045702808 -0.03553834 0.02144772
0002d0 4d 24 88 3b be bb 85 bd 06 1a 46 3c ab bf ab bd
       0.004154718 -0.065299496 0.012091165 -0.08386167
0002e0 b3 31 0e 3d f3 9f 0d bd 26 12 65 bd 68 fd e4 3d
       0.034715366 -0.034576368 -0.05592551 0.11181146
0002f0 d3 85 af bd 39 a3 1b 3c f2 c4 4d 3d f9 53 c4 3d
       -0.08570447 0.0094993645 0.05023665 0.09586329
000300 a2 ba 3d bd 51 70 33 bc 23 d0 72 3d b4 ea 03 bc
       -0.046320565 -0.010952071 0.059280526 -0.008051563
000310 51 9d a6 bc 23 d2 c0 bc d1 c1 10 3d 7a 31 b4 bc
       -0.020338686 -0.023537701 0.035341088 -0.021996249
000320 63 0e dd 3c c6 d5 1e bd 0a 79 0b 3d cb 85 05 3d
       0.0269844 -0.03877809 0.03405098 0.032598298
000330 ef 4e f0 bc 11 6c 94 3c c4 2f a9 bd 94 c9 97 bd
       -0.029334513 0.018117936 -0.08261064 -0.07411495
000340 87 7c 21 bd 07 d1 dc 3b ed 4d b1 3c 27 b2 8e 3c
       -0.0394254 0.006738785 0.021643603 0.017418934
000350 43 ce fa 3c 80 9e 90 bd 0f 61 84 bd 3b b7 ad bd
       0.030615931 -0.070614815 -0.06463825 -0.08482214
000360 83 80 62 3c 14 96 70 bd 5b 31 66 3d df 69 7b 3d
       0.013824585 -0.058736876 0.056199413 0.061380263
000370 ad 6d 95 bd a1 97 4a bb de 90 d3 3c 50 09 38 bb
       -0.072963096 -0.0030913132 0.025825914 -0.0028081723
000380 a6 ab 63 bc 36 61 2f bd bc 8f 9c bd b7 2b 79 bd
       -0.013895905 -0.042817317 -0.07644603 -0.060832705
000390 08 82 78 bc 52 94 57 bd 98 e6 e1 bd bf b3 77 bd
       -0.015167721 -0.052631684 -0.110303104 -0.060474154
0003a0 26 04 0c be 2c 37 e9 bd d7 df 1e 3d c4 5e 33 3c
       -0.13673458 -0.11387476 0.03878769 0.010947887
0003b0 08 e2 8e 3d fc 36 bd bc cd 86 5b bd fb 02 29 bd
       0.06976706 -0.023097508 -0.053595353 -0.041262608
0003c0 b3 94 0d 3d aa 27 44 bd fb ea b9 bc f0 85 95 bd
       0.03456564 -0.04788939 -0.022695055 -0.07300937
0003d0 fe 99 51 3d 10 49 19 3d e8 28 36 bd 03 b7 8d bd
       0.05117225 0.037423193 -0.044472605 -0.06919672
0003e0 44 d3 03 3d a3 f4 25 ba b1 b1 3b bd 16 0a 00 bd
       0.0321839 -0.0006330704 -0.045823757 -0.03125962
0003f0 65 ea 34 3d 2c d3 3e 3d b4 50 9b 3c e9 96 cf 3b
       0.04416885 0.046588108 0.01895938 0.0063351286

conv2.bias f4 [128]
000000 c9 ed c9 bc dd c8 4b 3d e5 e7 69 3d d6 fd 5f bd
       -0.024649518 0.049752105 0.057105917 -0.054685436
000010 7a 4e a7 3d 7f c1 75 bc 1f 62 d8 3a 03 3b 53 bd
       0.08169265 -0.014999746 0.0016508735 -0.05156995
000020 b6 24 2e bd 72 95 15 bd bf 3f 4e bd 19 cd 13 bc
       -0.04251548 -0.036519475 -0.05035376 -0.009021067
000030 b6 67 12 3d df ed 01 3d d5 93 20 3d 7a 63 81 3d
       0.035743438 0.031720992 0.039203484 0.06317802
000040 71 ab df 3c 32 cb 15 3d b0 8c 85 3d 92 5f 26 bd
       0.02730343 0.036570735 0.06520975 -0.040618487
000050 06 eb b4 bc 79 b1 b2 bc 90 f1 5a bd 2f 09 62 3d
       -0.022084724 -0.021813141 -0.05345303 0.05518454
000060 16 f2 61 3d cc b1 ba 3c 0c 66 be 3b ec 37 82 bd
       0.05516251 0.022789858 0.005810505 -0.063583225
000070 6c cd 33 ba df cf 3d bd c6 7b aa bc 12 fa 31 bd
       -0.00068589184 -0.04634082 -0.020810973 -0.043451376
000080 12 22 52 3d 9b ad 93 bd fb d6 49 3d 49 a1 10 3d
       0.051302023 -0.07210847 0.049277287 0.035310064
000090 58 f5 46 bd 95 c1 82 3c c4 02 6b 3d 3a 76 d3 bc
       -0.04857382 0.015961448 0.057375684 -0.02581321
0000a0 ff ed 96 3d 3f 85 d3 bc 98 94 74 bd dd 2c cd bc
       0.07369613 -0.025820373 -0.059712023 -0.025045807
0000b0 3d eb 91 bd 9e db b6 3b 78 f9 af bc 86 34 4a 3c
       -0.07124946 0.0055803796 -0.02148126 0.012341624
0000c0 8e ae f9 bc 5e 0a fc 3b c9 b4 a5 3b fc a1 b4 3c
       -0.030478742 0.0076916656 0.0050569517 0.022049896
0000d0 20 e4 60 bc 0f c7 2d 3d 4e e5 83 bd 01 72 f1 bc
       -0.013726264 0.042426165 -0.06440221 -0.029473307
0000e0 c0 14 c4 bc 3b 77 3e 3d 9c 54 27 3d 4c 59 0a bd
       -0.023935676 0.046500426 0.040852174 -0.033776566
0000f0 1e c4 ec bc bc bb 56 3d 83 23 0d bc 06 96 46 3d
       -0.02890211 0.05242513 -0.008614424 0.048482917
000100 58 47 76 bd 81 5c fd b9 1b f4 92 3b a7 36 74 bd
       -0.060126632 -0.0004832484 0.004484666 -0.059622433
000110 69 85 79 3d 62 91 98 3c 8a d7 7a bb 33 b6 e3 bc
       0.060918245 0.018624011 -0.0038275444 -0.02779684
000120 1f 7a c0 3c 26 cf 3b 3d c6 7a a2 bc ed 3c 01 3c
       0.023495732 0.04585185 -0.019833934 0.007888061
000130 10 c3 b5 bb a1 c7 8d bc ee 91 28 bd 46 18 38 3b
       -0.005546935 -0.017307105 -0.041154794 0.002809064
000140 de 46 8d bd 5e b1 61 3d 80 5d 69 bb e9 69 fb bc
       -0.068982825 0.05510079 -0.003560871 -0.03069015
000150 83 b5 48 3d 6a f0 41 3b 36 08 06 bd ef 98 a6 bd
       0.049001228 0.002959276 -0.032722674 -0.081346385
000160 5f d6 08 3c 64 97 8c bd 1b 4e 99 3c f6 cc 11 bd
       0.008351891 -0.06864813 0.018714001 -0.035595857
000170 0b 0e 90 bd 32 08 97 3c 71 49 b3 bc a2 db 93 bd
       -0.070339285 0.018436525 -0.021885606 -0.07219626
000180 9d 22 16 bd 82 44 33 bd e4 8f 28 3c 59 8e 0b bd
       -0.036654104 -0.043766506 0.010288212 -0.0340713
000190 f2 0c bf bc db c3 6e bd d0 ac 9c bc 81 31 91 bd
       -0.023321602 -0.05829225 -0.019125372 -0.0708952
0001a0 7b 71 80 bd 4d ca d5 3c 00 0c 14 b9 c7 c6 29 bc
       -0.06271645 0.026097441 -0.0001411885 -0.010362334
0001b0 1d bf ee 3c 78 b0 a1 3b e8 37 72 3c a7 c7 10 3c
       0.029143864 0.004934367 0.014783837 0.008836663
0001c0 e9 57 21 bd 0b 6d 58 bc f2 f9 31 3b c8 19 48 bd
       -0.03939048 -0.013209592 0.0027157036 -0.048852712
0001d0 8f ee 53 3d 91 a4 0f bd 00 be 47 bd 94 01 77 3d
       0.05174118 -0.035069052 -0.048765182 0.06030424
0001e0 eb 79 0b 3b 4f 7a 26 3c 1a d1 73 3d 4c e4 cc ba
       0.0021282386 0.010160997 0.059525587 -0.0015632003
0001f0 f5 f0 69 3d 16 a4 24 3d 12 7b 4b 3d fc da 8a 3d
       0.05711456 0.040195547 0.049677916 0.06780049

fc1.weight f4 [64, 128]
000000 40 07 fe ba 94 c1 42 bd 14 48 ec bc 80 7c aa ba
       -0.0019380823 -0.04754789 -0.028842963 -0.0013007075
000010 f6 d6 28 bd 59 bd b4 3d 38 a3 00 3d e8 14 1b bd
       -0.041220628 0.08825178 0.031405658 -0.037861735
000020 6a b2 de bc 63 97 97 3d c8 d9 81 bc 51 3c 95 3d
       -0.027184684 0.074019216 -0.015850917 0.07286895
000030 dc ed da 3c 08 74 8f bc 9e 96 59 3d 07 23 a1 3d
       0.026724748 -0.017511383 0.053122155 0.07868009
000040 46 9c 34 3d 7b 57 18 bd 80 db d2 bb a5 aa b0 bd
       0.044094346 -0.037192803 -0.006434858 -0.08626298
000050 ad ce 2e bd 05 6d 8f 3d 70 49 8c 3b 9b be 92 3d
       -0.04267757 0.07003216 0.0042812154 0.07165261
000060 42 6d 8f bd 58 71 71 bc 73 6f b3 3d 80 88 0d 3c
       -0.07003261 -0.014736496 0.087614916 0.008638501
000070 ea df 26 3d 80 a2 8f 3b c4 fd b1 3c ff 7c b4 3d
       0.040740885 0.004383385 0.02172745 0.088129036
000080 d4 71 47 bd 14 4b 8e bd 3a 42 0b 3d 30 6d 8b bd
       -0.04869254 -0.06947914 0.033998705 -0.06807935
000090 fc ce a4 3c 1b f1 9c 3d 63 8c 80 3d ff 8c 64 bd
       0.02011823 0.07663175 0.06276777 -0.055798527
0000a0 00 42 cc 3b bd a0 8b bd 48 01 43 bc 4d 80 a0 3d
       0.0062334538 -0.06817768 -0.011902161 0.078369714
0000b0 21 a0 a3 3d fd 7b 4a bd 19 a3 82 3d 70 e8 89 bb
       0.079895265 -0.04943465 0.06378765 -0.004208617
0000c0 30 f9 61 bc 2e e1 4a 3d b6 7a 55 3d e0 5e 89 bc
       -0.013792321 0.049531154 0.05211898 -0.016768873
0000d0 56 aa ea bc b6 d2 97 bd a2 47 08 3d 2a 77 6b bd
       -0.028645676 -0.07413237 0.03327144 -0.05748669
0000e0 5f 75 08 bd f8 81 47 bc fa 82 55 3d 77 f8 80 3d
       -0.03331506 -0.012176983 0.052126862 0.06297391
0000f0 b7 36 a8 3d 9c b1 a6 3c 98 a5 28 bc b2 93 33 3d
       0.08213561 0.020348363 -0.010293387 0.043842025
000100 80 53 51 3a 58 74 0f bc 16 65 52 bd bb c2 0f bd
       0.000798516 -0.008755766 -0.051365934 -0.03509782
000110 4c fe a2 bd dc 2f 95 bc 70 24 22 bc 12 37 04 3d
       -0.079586595 -0.018211298 -0.009896383 0.03227908
000120 cb 3c 23 bd a5 0f a9 3d e6 63 80 bd 0f 1b 86 3d
       -0.0398529 0.08254937 -0.06269054 0.0654813
000130 0f 75 a7 3d e1 ad 42 bd be ca 73 3d 44 e0 db bc
       0.08176624 -0.047529105 0.059519522 -0.026840337
000140 10 d3 83 bd 64 74 8a 3c 98 7c f9 3c b4 df 49 bd
       -0.06436741 0.016901202 0.030454919 -0.049285606
000150 ee 00 0e 3d 6e c4 5a 3d 0c 74 a4 bc e1 b0 13 bd
       0.034668855 0.053409986 -0.020074867 -0.036057357
000160 28 dc ca bc f9 31 96 3d 84 b4 c0 bc 20 0d da 3c
       -0.024763182 0.0733375 -0.023523577 0.026617587
000170 70 5c bb bb 93 61 a3 3d 27 b0 b0 3d 05 e9 92 3d
       -0.0057178065 0.07977595 0.086273484 0.07173351
000180 2c 39 82 bc a0 da cf bc f0 43 8a bc 3f bc 94 3d
       -0.015896402 -0.025372803 -0.016878098 0.072624676
000190 5c 77 9d bd e2 ca 73 3d 0a 5f 25 3d 00 d0 6f 38
       -0.076887816 0.059519656 0.04037384 5.7175756e-05
0001a0 4e c0 50 3d 60 9f 2a 3b f8 7e 6f bc 16 2a 86 bd
       0.050964646 0.0026034936 -0.014617674 -0.06550996
0001b0 15 45 83 3d 6e 70 07 3d 0e 8d 98 bd 64 71 c8 3c
       0.06409661 0.033066206 -0.07448779 0.024468131
0001c0 c2 c8 72 3d 4c a7 a4 3c 41 2b 9e 3d a8 a9 9c 3c
       0.05927349 0.020099305 0.07723094 0.019123867
0001d0 60 2b ed bb 6a 15 6a 3d 17 b8 99 3d 59 20 42 bd
       -0.0072378367 0.05714933 0.075058155 -0.04739413
0001e0 72 a9 57 3d 91 f6 81 bd 32 18 54 3d ec 83 cd bc
       0.05265183 -0.06345857 0.051780887 -0.02508732
0001f0 a9 06 7d bd 87 40 6b bd f0 5c 84 3c 84 ef e5 3c
       -0.06177393 -0.057434585 0.016157597 0.028068312
000200 7a 35 8a bd 5d e4 58 bd 6f 20 85 3b 16 80 40 3d
       -0.06748481 -0.05295216 0.0040627043 0.046997152
000210 0b e9 a8 3d af d6 05 bd 0d 89 2c bd a9 02 9e 3d
       0.082475744 -0.03267544 -0.04212289 0.07715351
000220 e0 83 90 3c 4f 52 a1 3d d1 c9 f6 3c 47 ce 3d 3d
       0.017641008 0.07877027 0.03012553 0.0463393
000230 0f 6c 81 bd 37 11 c9 3c 7f 15 91 3d 20 b1 d1 bc
       -0.06319439 0.024544341 0.07084178 -0.025597155
000240 d8 43 9f 3d d1 bd 90 bc af ee 9e 3c e6 ac 76 bd
       0.07776612 -0.017668637 0.019400923 -0.060223483
000250 ac 7f 3f 3d 26 54 36 bd 8a 37 e3 3c 90 ec 87 3d
       0.046752617 -0.044513844 0.027736444 0.066369176
000260 15 c9 00 3c 30 ec 8a bd 41 ec 61 bd 03 15 fc 3c
       0.007860442 -0.067833304 -0.05515695 0.030771738
000270 22 0d 1a 3c b1 87 04 bd b7 5a a1 bd 7c 59 78 bd
       0.009402545 -0.032355968 -0.078786306 -0.060632214
000280 dd d9 c7 bb 2e 7e 8b 3d 21 f3 80 bd 8d d5 4a bd
       -0.0060989694 0.06811176 -0.06296373 -0.049520064
000290 d4 f6 67 3b 3b be 26 3d 33 39 92 3d 78 f9 f5 3c
       0.0035394924 0.04070876 0.07139816 0.030026183
0002a0 02 9c 86 3b 09 06 58 3c d0 2d 6e bd 85 02 66 bd
       0.004107953 0.013185033 -0.05814916 -0.056154747
0002b0 d6 ea 86 3d ac 37 d2 3d 12 fb 7e bd d0 e0 62 3d
       0.0658776 0.10264525 -0.062251158 0.05539018
0002c0 74 57 e5 3d bd ed 21 bd 15 64 6e 3d 3a ce 93 3d
       0.11198321 -0.039533366 0.058200914 0.07217069
0002d0 d5 f2 66 3c cf b6 9c bd 7a 14 81 3b 76 7c 84 bd
       0.014095982 -0.076520555 0.0039392086 -0.064690515
0002e0 36 7f 87 bd 71 3c 69 3d 2e f9 84 bd 57 eb 53 bc
       -0.066160604 0.056942407 -0.0649284 -0.012934527
0002f0 48 65 a0 bd 8e 0b 98 bd 53 6f c1 3a 7e 0a 71 bd
       -0.07831818 -0.07424079 0.0014757909 -0.058847897
000300 00 19 98 bd 68 1c 99 bd 35 66 19 bd f3 33 ab 3d
       -0.07426643 -0.07476121 -0.037450988 0.08359518
000310 ac 71 83 3c 0f 7f b7 bd d6 db 78 3c 68 85 a4 3d
       0.016045414 -0.089597814 0.015189132 0.08033258
000320 f6 6b 87 3c 8b d4 e2 bc 1d 7a 97 3c 6d 5e 49 bd
       0.016530972 -0.027689239 0.018490845 -0.049162317
000330 2e a5 eb bc 4e b9 2b bd 96 24 2b 3c db db a6 bb
       -0.028765287 -0.041924767 0.0104457345 -0.005092127
000340 9b 47 5f 3d e4 f9 94 bd 08 38 16 bc 34 25 cd bc
       0.054511648 -0.07274225 -0.009168632 -0.025042154
000350 83 55 77 bd 9d 06 8f 3d b2 c4 1d 3d a5 fd 20 3b
       -0.060384285 0.06983683 0.03851766 0.0024565246
000360 b6 e5 4a bd 51 42 c1 3c f2 5b ac 3d a1 39 47 bd
       -0.049535476 0.023591192 0.08415975 -0.048638944
000370 05 72 85 bd c8 82 a2 bd ae cc 60 3c 4f d8 9b 3c
       -0.06515888 -0.07935101 0.013720674 0.019024042
000380 e2 94 1a bd 4c ae 83 bd 35 63 6f bd 51 63 89 bd
       -0.037739642 -0.06429729 -0.05844422 -0.06708396
000390 7a 8d 12 3d 64 06 9e bd 89 12 87 3c ac 48 bd bc
       0.035779454 -0.07716063 0.01648833 -0.023105942
0003a0 a5 51 8a 3d a6 8a 21 3d 40 ba ef 3a 80 b1 07 bb
       0.06753854 0.039438866 0.001828976 -0.0020705163
0003b0 aa e0 10 3d 9d 3e 6f bd 6d 50 1f bd b1 41 9e 3d
       0.035370506 -0.058409322 -0.03889506 0.077273734
0003c0 f0 07 95 3b 4d 0c 66 bd 89 e2 67 bc bb 19 49 bd
       0.0045480654 -0.056164075 -0.014153131 -0.049096804
0003d0 6f 92 73 3c d0 77 61 bd 18 69 a3 bb 45 53 86 bd
       0.014866455 -0.055045903 -0.0049868934 -0.06558851
0003e0 0c 68 ef 3d 20 e7 61 bc 62 c0 32 bc 39 7b a9 bd
       0.11689767 -0.013788015 -0.010910125 -0.08275456
0003f0 a5 5e 8d 3d c3 d8 cb bd 28 55 03 be 33 c4 de bb
       0.06902818 -0.099534534 -0.12825453 -0.006798291

fc1.bias f4 [64]
000000 8e 5a 95 bd 9a d8 12 3d 69 e1 e4 bc ff c2 8d 3d
       -0.072926626 0.0358511 -0.027939515 0.06921958
000010 c5 ce 83 bd 9c d4 2e 3c 0e 4f 95 3d ef 69 88 bc
       -0.064359225 0.010670807 0.07290469 -0.016652076
000020 da a9 b8 bd 35 f6 7f 3d ec a6 5b bd e1 ca a5 bd
       -0.090167716 0.06249066 -0.053625986 -0.08095337
000030 84 f5 84 3d 24 22 49 bc 11 06 37 bd 2e 5a 7f bd
       0.06492141 -0.012276206 -0.04468352 -0.06234186
000040 ce 4d 95 bd 54 65 83 3d f6 f8 8d bd 03 e7 91 3c
       -0.07290231 0.06415811 -0.06932251 0.01781035
000050 d2 a6 cc bd f6 ff 3b bd 4a c5 89 3c 10 97 a6 bd
       -0.09992756 -0.0458984 0.016817708 -0.08134282
000060 19 75 86 3d 6d 4a 8a bd 6f 93 af bc f6 5e 22 bd
       0.06565303 -0.06752477 -0.021432607 -0.039641343
000070 ab 6c 41 3d 45 4f 3f 3c 69 ea 1e bd 4c 68 91 3d
       0.047222774 0.011676614 -0.03879777 0.07099971
000080 13 3c e5 bb f3 08 05 3b 37 63 18 3d f6 c8 5a 3d
       -0.006995687 0.0020299524 0.037203994 0.053414308
000090 3e 39 35 bd bf 61 ac bd 68 96 20 3d e7 af 8c bd
       -0.044244044 -0.08417081 0.03920594 -0.06869488
0000a0 b7 59 b9 bd 79 ac 61 bd cb c7 a9 bd ef aa 3e 3d
       -0.09050315 -0.055096123 -0.082900606 0.046549734
0000b0 02 29 02 bd 1d 14 b0 bd 05 7c 1d bd 96 06 44 3d
       -0.03177739 -0.08597586 -0.038448352 0.047857843
0000c0 d8 67 49 3d 61 18 5e bd d8 43 26 bd cf 48 55 bd
       0.0491713 -0.05422247 -0.040592045 -0.05207139
0000d0 5a 62 b2 3c d8 b8 39 bd 02 35 a5 bd 09 6a 8e 3d
       0.021775413 -0.045342296 -0.08066751 0.06953818
0000e0 1b b0 81 3c 4b f7 8f bd e6 97 af 3d 6f e2 82 bd
       0.015831044 -0.07029589 0.08573894 -0.06390845
0000f0 30 5f 8e 3d 53 cb aa bd da 98 27 bc cc 3e 65 bd
       0.06951749 -0.08339562 -0.010229314 -0.05596809

fc2.weight f4 [3, 64]
000000 74 9e 09 3d ca db 85 bd 41 e8 30 3d b2 be f3 bd
       0.03359838 -0.06536062 0.043190245 -0.119016066
000010 68 ac c9 bd bd 76 93 bd 7e 66 90 3d 68 65 8c 3d
       -0.09847337 -0.07200382 0.07050799 0.06855279
000020 eb 4f 86 bc 9b 57 87 bd 79 fc c4 3c 30 44 27 3c
       -0.01639553 -0.06608506 0.02404617 0.010209128
000030 a3 4f 0e bd ee d3 9b bd 88 b9 00 bd 64 2b ec bc
       -0.034743916 -0.07608782 -0.031426936 -0.028829284
000040 38 8b b9 bc 4e af a8 3d 90 c6 b0 3d 85 6c 75 bd
       -0.022649392 0.08236562 0.08631623 -0.059917945
000050 47 75 8d bd f0 d8 51 bc d8 f2 a0 bd 08 0b d4 3d
       -0.069071345 -0.01280807 -0.07858819 0.103536665
000060 66 84 c7 3d 72 9c 69 bc c9 94 a5 bd ce b6 c6 bd
       0.0974205 -0.014258491 -0.08085019 -0.09702836
000070 46 85 fd bc 1c 10 ae bd 8b 4b ae 3d b7 0b 66 bd
       -0.030947339 -0.08499166 0.085105024 -0.056163516
000080 a2 e0 b6 bd e3 4d 6e bd 09 bf b7 bc cb a7 10 bc
       -0.08929564 -0.058179747 -0.02242996 -0.008829067
000090 dd 8b e7 b9 42 7c 0a 3d ef 84 6b bd 02 b1 a1 3d
       -0.0004416396 0.033809908 -0.057499822 0.0789509
0000a0 4d 8e d2 3b 81 54 47 3d 0c 42 59 3c f7 6c 44 bc
       0.006425655 0.048664574 0.013260376 -0.01198887
0000b0 d3 cc af bb 90 79 be bd 73 3a b2 bc b9 0b c6 bd
       -0.005364993 -0.0930053 -0.021756386 -0.09670205
0000c0 26 0a d2 bd 77 02 9d ba b3 50 79 3d f0 89 8c 39
       -0.10255842 -0.0011978884 0.060867976 0.00026805652
0000d0 aa f5 ec bd 5e 84 31 bd c0 b5 4f 3d 5e 18 29 3d
       -0.11570294 -0.043339126 0.05071044 0.041283004
0000e0 6f 55 97 3d a2 8a 2e 3d bf 5c 99 bd b6 3a dd bd
       0.07389342 0.04261268 -0.07488393 -0.10802214
0000f0 ff 5c 75 bd a8 a0 44 3d d6 44 a7 bd 90 47 b2 bd
       -0.05990314 0.048004776 -0.08167426 -0.08705056
000100 90 25 0b 3c 10 37 0c bd e4 fe 02 3d d4 fc 94 bd
       0.008492842 -0.0342322 0.031981364 -0.07274786
000110 15 30 57 bd 28 4a 94 3c 37 08 95 bd e3 74 38 bd
       -0.05253609 0.018101767 -0.072769575 -0.045033347
000120 fc 87 cd 3d d6 59 10 bd 7c 8b e6 bd d0 ff 28 3d
       0.100357026 -0.035241924 -0.11257073 0.041259587
000130 45 a0 a1 bd 35 ea b9 3d 52 4e f3 3d cf b2 07 bd
       -0.07891897 0.090778746 0.11880173 -0.03312951
000140 90 7b b5 3c f5 fd d2 bd e7 f1 18 3c 63 b5 0b bd
       0.022153646 -0.10302345 0.009335018 -0.03410853
000150 f8 9f e0 bd d2 7e e8 3d 86 d9 d5 bd dc f8 28 bd
       -0.109680116 0.11352314 -0.1044188 -0.041252956
000160 6c 61 a9 bd 6e 17 67 3d e6 06 8a 3d ea ad 7c 3c
       -0.08270535 0.05641883 0.06739597 0.015422324
000170 58 02 ce 3c 58 dd 49 bc d3 3f c4 bb 8f 71 d3 bc
       0.025147602 -0.012320839 -0.0059890538 -0.025810985
000180 82 6b a1 3d 8a be 49 3d 5b 2f 9f bb 66 b5 08 bd
       0.078818336 0.049253978 -0.00485794 -0.03337612
000190 ef ff 56 3d a7 8e 78 3c 28 84 e2 3d 10 f0 a6 bd
       0.05249017 0.01517073 0.11060363 -0.08151257
0001a0 8a ec e2 bd 7c 0c 8e 3b fb 57 e5 bd 75 35 b2 bd
       -0.110802725 0.0043349843 -0.111984216 -0.08701602
0001b0 f3 78 dd bd 3a 32 dc 3d 96 e9 8e bd e9 00 d2 bd
       -0.10814085 0.107517675 -0.06978147 -0.1025408
0001c0 32 20 da 3c 0a 11 d7 bd e9 49 a6 bc 9b 0f 7e bd
       0.02662668 -0.10501297 -0.020298915 -0.0620266
0001d0 21 2d 3c bd e3 b8 0d 3d 60 bb f3 bb a8 17 d8 3d
       -0.045941476 0.03460015 -0.0074381083 0.10551387
0001e0 13 d8 23 bd 2a 38 b2 bd 73 cf bb 3d 40 e5 99 bd
       -0.040000986 -0.08702119 0.09170427 -0.07514429
0001f0 28 09 d1 3d 75 30 74 3d 86 ae b0 3d 60 2d 4f bd
       0.102068245 0.059616525 0.08627038 -0.050580382
000200 48 9f 9b bc 29 12 71 bd 7c 9c c1 3c b2 9f f6 bd
       -0.01899685 -0.05885521 0.023634188 -0.12042178
000210 8e 91 92 bd 5f 39 d5 bd 31 82 da 3d 7e 71 4f bd
       -0.071566686 -0.10411333 0.10669363 -0.050645344
000220 b3 72 fe bc aa 6b d9 bd 57 8d ac bd 30 61 06 bc
       -0.031060552 -0.106162384 -0.08425396 -0.008201882
000230 2a 92 a1 bd c7 b1 cc bd b0 26 78 3c cc 52 c0 bd
       -0.07889207 -0.09994846 0.015145943 -0.09390792
000240 f0 8d 5b bd 9d bc 27 3d d3 0f 3a 3d b5 0d c1 bd
       -0.05360216 0.04095136 0.045425247 -0.094264425
000250 9b 96 31 3d e8 d3 14 bd ff fa 87 bc 40 b9 2b bc
       0.04335652 -0.036334902 -0.016599176 -0.010481179
000260 17 a6 b7 bd b7 f3 0d bd a8 0b 4c bd b2 b2 b6 bd
       -0.08967226 -0.034656253 -0.049815804 -0.08920802
000270 12 88 69 3c c3 f3 9c 3d d6 11 63 bd da c6 d7 3d
       0.014253633 0.07663681 -0.05543693 0.10535975
000280 4b 60 5d bb e5 47 43 bd 0e a3 e3 bc 9f ff 40 bd
       -0.003377932 -0.047675986 -0.027787711 -0.04711878
000290 2e ae 2c bd 74 46 45 bd d3 ff 86 3d 17 7c b9 3d
       -0.0421583 -0.048162892 0.06591763 0.090568714
0002a0 a0 21 6a bd fe c4 4e bd 11 f7 65 3d ae b3 13 bc
       -0.057160974 -0.050480835 0.056143824 -0.009015007
0002b0 6f bf e6 bd 80 15 f5 bd da c6 e8 3d 81 cc a8 bd
       -0.11266982 -0.119669914 0.11366053 -0.08242131
0002c0 9c 6f c7 bd e0 11 d7 3d fa fb 56 3d 92 cd ff bc
       -0.09738085 0.10501456 0.052486397 -0.031225953
0002d0 08 f3 e2 ba dc fd a2 bc fe 00 82 bd 5a d0 76 bd
       -0.0017314861 -0.01989644 -0.063478455 -0.060257293
0002e0 42 3f fc bd 78 cd 4f 3d 5e 46 4f 3d 49 14 7f bd
       -0.12316753 0.05073306 0.050604217 -0.062275205
0002f0 61 05 0c bd 0e 8c 85 3d c4 4b a8 3d 0f be 8f bc
       -0.034184817 0.06520854 0.08217576 -0.017546682

fc2.bias f4 [3]
000000 b7 50 bb bc 8e 17 04 3d e8 bf d0 3d
       -0.022865636 0.032249026 0.10192853
