models/archived/lstm_model.pt (torch, 207714 bytes, 9 tensors)

lstm.weight_ih_l0 f4 [256, 3]
0	0x3d8cfe44	0.06884435
1	0x3cc2733c	0.023736589
2	0x3da922f8	0.08258623
3	0x3c8ef87f	0.017452477
4	0xbdf66346	-0.12030654
5	0x3d4c10fd	0.04982089
6	0x3dce3259	0.10068197
7	0x3d6b9dd1	0.057523552
8	0x3d1ab69d	0.03777181
9	0xbd07b2de	-0.033129565
10	0xbddf9189	-0.109164305
11	0x3c805d7d	0.015669579
12	0xbcb69ee3	-0.02229256
13	0x3da67a56	0.081288025
14	0xbdd18d60	-0.10232043
15	0x3d5227d2	0.051307507
16	0x3d0b8911	0.034066264
17	0xbd1e0d71	-0.038587037
18	0x3c1a46e3	0.009416315
19	0xbd0f13cd	-0.034930993
20	0xbcca256e	-0.024676051
21	0xbdeaa5c8	-0.114574015
22	0xbd6c9b54	-0.05776532
23	0xbd82f3e8	-0.06394178
24	0x3c4f17c0	0.01263994
25	0x3db69b69	0.08916361
26	0x3d9f7fd3	0.077880524
27	0x3da8d297	0.08243292
28	0x3dd2ab7e	0.10286616
29	0x3e0646f9	0.13113011
30	0x3ce16f42	0.027518872
31	0xbcafff16	-0.02148394
32	0xbd38d7cd	-0.04512768
33	0x3de6628f	0.11249267
34	0xbcd69a4e	-0.026196625
35	0x3e0314ad	0.12800856
36	0x3d62178b	0.055198234
37	0x3a7f1275	0.00097302283
38	0x3d44af96	0.048019014
39	0xbcd313e8	-0.025766328
40	0xbdaf9f49	-0.08575303
41	0x3dde66b7	0.10859435
42	0x3c9d26e5	0.019183585
43	0xbca87c97	-0.020567222
44	0xbc8d2afd	-0.017232412
45	0x3db7f9b9	0.08983178
46	0x3b3f5185	0.0029192877
47	0x3d55b3c4	0.05217339
48	0xbd0e13b5	-0.034686763
49	0xbda02294	-0.07819095
50	0xbd1e35ee	-0.03862565
51	0x3d75d3bc	0.06001638
52	0x3d4829ca	0.04886798
53	0x3d03cae8	0.03217593
54	0xbd5e18af	-0.05422276
55	0xbdee6a17	-0.11641329
56	0xbdff1b54	-0.12456384
57	0xbb9b7339	-0.00474396
58	0xbdea0b5f	-0.1142795
59	0x3da4c37b	0.080450974
60	0x3da19b23	0.07890918
61	0xbd8a4806	-0.06752019
62	0x3d943286	0.07236199
63	0xbdb8fc6e	-0.09032522
64	0xbdd462bf	-0.10370397
65	0x3c5d2c48	0.013499327
66	0xbd9d04be	-0.0766692
67	0xbc7cafd3	-0.015422779
68	0x3c543014	0.012950916
69	0x3e109804	0.1412049
70	0x3d7e93a1	0.06215251
71	0x3bb044ce	0.005379296
72	0x3d57c41a	0.05267725
73	0xbd9feb0d	-0.07808504
74	0xbddb2c89	-0.10701854
75	0xbc585b50	-0.013205364
76	0x3cb92e09	0.02260496
77	0xbda54dff	-0.08071517
78	0x3cc5af43	0.024131423
79	0x3dddc953	0.10829415
80	0x3df2c767	0.11854439
81	0xbd21d69f	-0.03951132
82	0x3d08148f	0.03322273
83	0x3d183e15	0.03716858
84	0x3dcb89da	0.099384025
85	0x3d64ad71	0.05582947
86	0xbc5992b0	-0.013279602
87	0xbc001d25	-0.007819449
88	0xbd8938bd	-0.06700275
89	0xbca133e3	-0.019678062
90	0x3dc7ff13	0.097654484
91	0x3db9d19f	0.09073185
92	0x3c40549d	0.011738923
93	0x3e010367	0.12598954
94	0x3e11db94	0.14243919
95	0xbd5ab4bd	-0.05339502
96	0x3dbfbdd4	0.09362379
97	0xbd243f54	-0.040099457
98	0xbd042f48	-0.032271653
99	0xbdbb8969	-0.09157068
100	0x3c62715a	0.01382097
101	0xbdb2f66a	-0.08738406
102	0x3d2daba2	0.04240001
103	0x3d96d2b3	0.073644064
104	0xbcf09de0	-0.029372156
105	0xbe02e6ec	-0.12783402
106	0x3dac17b1	0.08402956
107	0x3ddcc07a	0.107788995
108	0xbd060b6a	-0.03272573
109	0x3d646d1c	0.055768117
110	0xbda9ba40	-0.082874775
111	0xbcf7b352	-0.030236874
112	0x3e065c31	0.13121106
113	0x3bd3e453	0.0064664274
114	0x3df5e4f7	0.12006562
115	0x3d7a06a1	0.061041478
116	0xbc704662	-0.014665218
117	0xbd5d3014	-0.05400093
118	0x3db8a1d2	0.0901524
119	0x3d6c1e49	0.05764607
120	0x3e0a1ed8	0.13488328
121	0x3e0cfcb6	0.13768277
122	0x3ad430a4	0.0016188812
123	0x3d89df35	0.067320265
124	0xbcb76401	-0.022386553
125	0xbdcd6323	-0.100286745
126	0xbcaa6476	-0.020799857
127	0xbc40ca73	-0.011767018
128	0xbdba9800	-0.09111023
129	0x3db19bc4	0.08672288
130	0xbe03ec8a	-0.12883201
131	0xbd7005b2	-0.05859918
132	0x3cac0785	0.02099968
133	0x3d7b0dc6	0.061292432
134	0x3ddfefee	0.10934435
135	0xbdf57d43	-0.119867824
136	0x3d654cf7	0.055981603
137	0x3c3c5db0	0.011496946
138	0x3c3bf4e0	0.011471957
139	0xbdbb309e	-0.09140132
140	0xbdd705ca	-0.10499151
141	0x3d6d2da0	0.05790484
142	0x3c44c57a	0.012009973
143	0x3dad7342	0.08469249
144	0xbdd51aeb	-0.10405525
145	0x3d2332af	0.039843258
146	0x3db99ecf	0.090634935
147	0xbd0b68a0	-0.034035325
148	0xbe05029e	-0.1298928
149	0xbdebe539	-0.1151833
150	0x3dfa4484	0.122200996
151	0x3d98590b	0.074388586
152	0x3dbac4a0	0.091195345
153	0x3d4881e3	0.048951995
154	0xbd481980	-0.048852444
155	0xbcc7b479	-0.024378048
156	0xbd9d57d6	-0.07682769
157	0x3d561cbd	0.0522735
158	0x3dd31d10	0.103082776
159	0xbdc0f60f	-0.09421932
160	0x3d8c0ccf	0.068383805
161	0x3c940803	0.018070227
162	0x3d9fe7cf	0.07807886
163	0xbdbcabc6	-0.09212451
164	0xbbf763cc	-0.0075497385
165	0x3dd669a9	0.10469372
166	0xbcde3c32	-0.027128313
167	0x3d6528ea	0.05594722
168	0x3d9db730	0.07700956
169	0x3d7eaa83	0.06217433
170	0x3ce12678	0.027484164
171	0xbcb8cf29	-0.02255972
172	0x3d2dedb9	0.042463038
173	0xbbe0ebab	-0.0068640313
174	0xbdb9ba4b	-0.09068736
175	0xbd52e51e	-0.051488034
176	0xbddcc01b	-0.10778829
177	0x3e0db4ac	0.13838452
178	0x3cfcc2b1	0.030854555
179	0x3d4aeba9	0.04954115
180	0xbda68ae4	-0.0813196
181	0x3d913165	0.070894994
182	0x3dbaa44c	0.091133684
183	0xbe0280ad	-0.12744398
184	0x3d93bc1b	0.07213613
185	0xbd865932	-0.065599814
186	0xbd176074	-0.03695722
187	0xbdab0908	-0.08351332
188	0xbd70dbcc	-0.058803365
189	0xbd0f844b	-0.035038274
190	0xbdbf99bd	-0.09355495
191	0xbcd6e527	-0.026232315
192	0x3d8f9eb9	0.07012696
193	0x3d7fd147	0.06245544
194	0x3dc8d0bf	0.0980544
195	0x3dddc0c6	0.10827784
196	0xbd10aa79	-0.035318825
197	0xbdb4cdc1	-0.08828307
198	0x3dc9228e	0.09821044
199	0x3ca3d2b7	0.019997938
200	0x3d02dd5e	0.031949393
201	0xbddebe9e	-0.10876201
202	0x3da14d5b	0.078760825
203	0xbd1fe4d8	-0.0390366
204	0xbd734ef6	-0.059401475
205	0x3da6d384	0.08145812
206	0x3db3b928	0.0877555
207	0x3db6b46d	0.08921132
208	0xbd854d99	-0.06508941
209	0xbceaf8ef	-0.028683154
210	0xbdef9e0d	-0.11700068
211	0xbdd77648	-0.10520607
212	0xbcd0b9d7	-0.02547924
213	0xbdb6641c	-0.08905813
214	0x3d1c6db4	0.03819056
215	0xbd88a495	-0.066720165
216	0x3c3b6325	0.011437212
217	0x3dbc17bb	0.09184214
218	0xbdd0a7f8	-0.101882875
219	0x3c7d752d	0.015469831
220	0x3dc28bdd	0.09499333
221	0x3e05a6a6	0.13051853
222	0x3e0a59fa	0.13510886
223	0x3cf1746a	0.029474456
224	0x3db2a02d	0.08721957
225	0xbce3bdac	-0.027800404
226	0xbdc16e1c	-0.0944483
227	0xbcc6da88	-0.024274126
228	0xbdd79b13	-0.10527625
229	0xbd990a82	-0.07472707
230	0x3d38365d	0.04497372
231	0xbd26dbcf	-0.04073697
232	0x3dc7255c	0.097239226
233	0xbde0435a	-0.10950346
234	0x3cc0e6ce	0.023547556
235	0x3c28f59d	0.010312465
236	0xbc3c0845	-0.011476581
237	0x3d8cf49e	0.068825945
238	0x3d413877	0.04717299
239	0x3b9859e1	0.0046493863
240	0xbc83c278	-0.01608394
241	0x3d0a9a1c	0.033838376
242	0xbc1ee26a	-0.009697536
243	0xbcbd59de	-0.023114141
244	0x3c62561f	0.013814478
245	0xbbaf0c25	-0.005342024
246	0xbd627bfb	-0.05529402
247	0xbd912d62	-0.07088734
248	0xbd329b7c	-0.043605313
249	0x3d957c7f	0.07299136
250	0xba522989	-0.00080170535
251	0x3dc3e26f	0.09564673
252	0x3c95be05	0.018279085
253	0xbd2afb6b	-0.041743677
254	0xbd017e9f	-0.031614896
255	0xbcb9d1bb	-0.022683015

lstm.weight_hh_l0 f4 [256, 64]
0	0xbd386604	-0.045019165
1	0xbcc9bc95	-0.024626056
2	0xbd818c52	-0.06325592
3	0xbd33c909	-0.043892894
4	0x3bc89c1b	0.006122125
5	0x3d1d69ed	0.038431097
6	0x3d43d67a	0.047811963
7	0xbd563ea4	-0.052305833
8	0x3dc5f0c3	0.09665062
9	0xbd73e26f	-0.059542116
10	0xbd876bf3	-0.066123866
11	0xbc5be474	-0.013421167
12	0x3d7b93f9	0.061420415
13	0xbddf042c	-0.108894676
14	0x3d858404	0.065193206
15	0xbcbd19a7	-0.023083521
16	0x3cf528ca	0.029926676
17	0xbd93fd04	-0.07225993
18	0x3deb26ef	0.11482035
19	0xbd5d4d28	-0.05402866
20	0x3da69ca1	0.08135343
21	0x3d6b20a7	0.057404187
22	0x3d79337e	0.060840122
23	0xbdee671d	-0.11640761
24	0xbc08d3d7	-0.008351288
25	0x3d65b1a3	0.05607761
26	0xbb89d183	-0.004205884
27	0xbdd53f21	-0.104124315
28	0x3da17868	0.07884294
29	0x3d929f91	0.07159341
30	0xbdcc40b5	-0.099732794
31	0x3da5feb9	0.08105225
32	0x3deeb08f	0.1165477
33	0xbd848ceb	-0.064721905
34	0xbdd2546b	-0.10270008
35	0x3d1cf29c	0.038317308
36	0x3d812598	0.063059986
37	0xbdc9593f	-0.098314755
38	0xbdfcb2ac	-0.123387665
39	0x3d92f7ee	0.07176195
40	0x3de2cda0	0.11074376
41	0xbd3c3e83	-0.045958053
42	0x3d1fa3cf	0.03897458
43	0xbd8fece0	-0.07027602
44	0xbde8f266	-0.11374359
45	0x3ca05003	0.019569403
46	0xbda26590	-0.07929528
47	0x3dba49fe	0.09096144
48	0xbdac1cd0	-0.08403933
49	0xbde63aa3	-0.11241653
50	0x3e02d198	0.12775266
51	0x3db8f96f	0.09031951
52	0x3cd51125	0.026009152
53	0xbdd4b070	-0.10385215
54	0x3e041718	0.12899435
55	0xbd022ef4	-0.03178306
56	0xbe044704	-0.12917715
57	0xbd886d31	-0.066614516
58	0xbdadbced	-0.084833
59	0x3dd6599d	0.10466311
60	0x3cdd1d36	0.026991468
61	0x3da7dbdf	0.08196234
62	0xbc6ab9d4	-0.014326531
63	0xbdd239c0	-0.10264921
64	0x3d963ddf	0.0733602
65	0xbd29909b	-0.041397672
66	0x3df39df7	0.11895364
67	0x3dcc37c0	0.09971571
68	0xbddff268	-0.10934907
69	0xbd50b305	-0.050951976
70	0x3c324d1c	0.010882642
71	0x3b1cff37	0.002395583
72	0xbd641c7d	-0.05569123
73	0xbd8e308b	-0.069428526
74	0x3d407e14	0.046995237
75	0x3da5d9e3	0.08098199
76	0xbdbd5d39	-0.092462964
77	0x3ca2b7e1	0.01986307
78	0x3d9a7e6f	0.075436465
79	0xbc5c8791	-0.013460056
80	0xbdcb6af0	-0.09932506
81	0xbd8718e5	-0.06596545
82	0xbdaa721c	-0.08322546
83	0xbdb459e1	-0.088062055
84	0xbd89b304	-0.06723598
85	0xbe015096	-0.12628397
86	0x3ddf0e31	0.10891379
87	0xbd2b5d8e	-0.041837268
88	0xbdece9d7	-0.11568039
89	0xbc223198	-0.009899519
90	0x3d9404a5	0.072274484
91	0x3dece9aa	0.115680054
92	0x3d579e45	0.052641172
93	0x3d86bbc9	0.06578786
94	0xbd993818	-0.07481402
95	0x3d84ede7	0.06490689
96	0xbde3086c	-0.11085591
97	0xbdc4a341	-0.09601451
98	0x3c24e261	0.010063739
99	0x3db0b5a1	0.08628393
100	0xbdb0d203	-0.086338066
101	0x3db16582	0.08661939
102	0x3c5cae32	0.013469266
103	0x3d7ea024	0.06216444
104	0xbd99dde0	-0.075130224
105	0xbd3e9eda	-0.04653821
106	0xbdd94c18	-0.10610217
107	0xbdb2b20c	-0.08725366
108	0xbca0139f	-0.019540606
109	0x3cb2e22e	0.021836367
110	0x3d8636eb	0.065534435
111	0x3d85b44d	0.0652853
112	0xbd8d7417	-0.06906908
113	0xbdbfa76e	-0.093581066
114	0xbdff9467	-0.124794774
115	0x3d557ae1	0.05211914
116	0xbcc81704	-0.024425037
117	0x3dda8124	0.10669163
118	0x3d6a963d	0.057272185
119	0xbcf26cfe	-0.029592987
120	0x3b09607d	0.0020962053
121	0x3d2fdf35	0.042937476
122	0x3d32e755	0.043677647
123	0xbd3b212a	-0.045685925
124	0xbd8e2480	-0.069405556
125	0x3d8823bd	0.066474415
126	0x3dad6ce0	0.08468032
127	0xbdd6fd07	-0.1049748
128	0xbdecc4dd	-0.11560986
129	0xbd87d1ff	-0.066318505
130	0x3d73ed12	0.05955226
131	0x3cbc887c	0.0230143
132	0xbc8e18b3	-0.017345762
133	0xbc359de0	-0.011085004
134	0x3dd4d141	0.103914745
135	0xbdba247b	-0.09088989
136	0x3d162ffa	0.036666848
137	0x3da4d5eb	0.08048614
138	0x3d31f7bd	0.043449152
139	0x3d77bab4	0.06048079
140	0x3d23ced2	0.03999216
141	0x3d984a35	0.07436029
142	0xbddaf191	-0.106906064
143	0xbd51b947	-0.051202085
144	0x3d2a2cf3	0.041546773
145	0x3d668e96	0.056288324
146	0xbd944ffb	-0.072418176
147	0x3d1aafca	0.0377653
148	0xbd881c59	-0.06646032
149	0xbca3e355	-0.020005861
150	0xbddb9c89	-0.10723216
151	0xbdef8b74	-0.116965204
152	0x3d96771f	0.07346939
153	0x3d0aac59	0.03385577
154	0x3c192068	0.009346105
155	0xbc832aa3	-0.016011542
156	0x3d4afb18	0.049555868
157	0x3d056d30	0.032574832
158	0xbce4662a	-0.027880747
159	0x3d27016e	0.040772848
160	0xbdcf1098	-0.10110587
161	0x3dd23098	0.10263175
162	0xbc9fdccd	-0.019514466
163	0x3ccd559e	0.02506524
164	0xbdd0197f	-0.10161113
165	0xbd947233	-0.07248344
166	0xbda314e4	-0.07962969
167	0xbdd313f7	-0.10306542
168	0x3d7e959e	0.062154405
169	0x391e87ee	0.00015118692
170	0x3dab0e29	0.0835231
171	0x3ca25ed4	0.019820608
172	0xbb47be70	-0.00304785
173	0x3d820654	0.06348863
174	0x3b10a728	0.002207229
175	0xba9a3402	-0.0011764767
176	0x3dfcf17d	0.12350748
177	0x3db5ba5d	0.088734366
178	0x3bc6576e	0.006052903
179	0x3cc274ae	0.023737278
180	0x3d9b02af	0.07568871
181	0xbcc173a0	-0.023614705
182	0xbd0d84df	-0.034550544
183	0xbdaf3a47	-0.085560374
184	0x3df20747	0.11817794
185	0xbc4deb84	-0.012568358
186	0xbd931ff1	-0.07183827
187	0xbda9f683	-0.082989715
188	0x3cc44d64	0.023962684
189	0xbd94f665	-0.072735585
190	0x3d85caa5	0.06532792
191	0xbd5559a7	-0.052087452
192	0x3db5f376	0.08884327
193	0x3cdb2982	0.02675319
194	0xbcc3de4f	-0.023909716
195	0x3d8c21e3	0.06842401
196	0x3dc04ab9	0.09389252
197	0xbdc78481	-0.0974207
198	0x3d204bdc	0.039134845
199	0xbc995345	-0.018716464
200	0xbdd57358	-0.10422391
201	0xbde9a1e9	-0.11407835
202	0x3d957dbb	0.07299372
203	0xbdb9d6cb	-0.09074172
204	0x3dab52af	0.0836538
205	0x3cdb3083	0.02675653
206	0x3dda34aa	0.10654576
207	0xbd8f5c5a	-0.070000365
208	0x3cb6046d	0.022218907
209	0x3d4f0965	0.05054607
210	0x3db43a99	0.08800239
211	0xbdae4b12	-0.08510412
212	0x3dc28af8	0.094991624
213	0x3deb4825	0.1148837
214	0x3da6a705	0.08137325
215	0x3d9a5ae9	0.07536871
216	0x3cdf073c	0.02722513
217	0xbb6378d1	-0.0034709463
218	0xbd6534b1	-0.055958454
219	0x3d9674c2	0.073464885
220	0xbe01a14d	-0.12659188
221	0xbcd7d276	-0.026345473
222	0xbc5f1801	-0.013616563
223	0xbbf47ce7	-0.0074611786
224	0xbdb2857a	-0.08716865
225	0xbd1bd882	-0.038048275
226	0x3cc00b48	0.02344288
227	0x3d30f037	0.043197837
228	0x3d11e3a4	0.035617486
229	0xbdd1a2a1	-0.10236097
230	0x3cad25ca	0.021136183
231	0x3dffb66d	0.12485967
232	0xbdbe4336	-0.09290163
233	0xbdc8eb53	-0.098105095
234	0xbc560300	-0.013062239
235	0x3d48ee6f	0.049055513
236	0xbd34f23c	-0.044176325
237	0x3d02ad9e	0.031903856
238	0x3d3c73d5	0.046008904
239	0x3d315bc0	0.04330039
240	0xbd4bed55	-0.049786884
241	0x3ce94bd8	0.028478548
242	0x3d777ea7	0.06042352
243	0x3d7013dd	0.058612693
244	0x3d080d55	0.03321584
245	0xbd1b91ae	-0.037980728
246	0x3cbaeb5c	0.022817306
247	0x3d13018b	0.035890143
248	0xbd4d0079	-0.05004928
249	0xbdc7a7c1	-0.097487934
250	0xbddab63c	-0.1067929
251	0x3dc4ff0e	0.0961896
252	0x3d6f916f	0.058488306
253	0x3dece0ae	0.11566292
254	0xbdf287b2	-0.11842288
255	0x3d9ccc50	0.07656157

lstm.bias_ih_l0 f4 [256]
0	0x3e078bdd	0.13236947
1	0x3db00e34	0.08596459
2	0xbcc285aa	-0.023745377
3	0xbdb7f3d0	-0.089820504
4	0xbc375e36	-0.011191895
5	0x3c02e117	0.007988236
6	0xbdafcf0b	-0.08584412
7	0x3cf9eebd	0.030509347
8	0xbd54c7fe	-0.05194854
9	0xbcd4a897	-0.025959296
10	0xb9c1ad66	-0.0003694102
11	0xbb0c37a6	-0.0021395474
12	0xbd9c8f65	-0.07644538
13	0xbca90c43	-0.02063573
14	0xbc8cdbf9	-0.017194735
15	0x3c15650b	0.009118329
16	0x3d22d752	0.039756127
17	0xbdca00e3	-0.098634504
18	0x3db8274e	0.08991872
19	0x3bf0de99	0.0073507545
20	0x3d0c2fd9	0.03422532
21	0x3d49a5a1	0.04923022
22	0xbd819f3f	-0.06329202
23	0x3e0c31fa	0.1369094
24	0x3da519d9	0.08061571
25	0x3b094cb9	0.0020950271
26	0xbbdd3fd5	-0.006751994
27	0xbd902027	-0.070373826
28	0x3d75bd6a	0.059995092
29	0x3d571489	0.05250982
30	0xbd4c2cb0	-0.049847305
31	0x3dc68168	0.09692651
32	0xbda57c4e	-0.0808035
33	0x3dc6f977	0.097155504
34	0xbd855053	-0.06509461
35	0xbdddf21d	-0.10837195
36	0x3c70b3e3	0.014691326
37	0xbdba08a6	-0.09083681
38	0x3dd8381a	0.105575755
39	0xbd09e2bf	-0.033663508
40	0xbd67b7a0	-0.056571603
41	0xbd1cdb0b	-0.038294833
42	0x3b1142e6	0.0022165119
43	0x3ca652ea	0.020303208
44	0xbcae3897	-0.021267219
45	0x3dc53a37	0.09630244
46	0xbdefcdf6	-0.11709206
47	0xbd3334c7	-0.043751504
48	0x3e11d5d3	0.14241724
49	0x3ddae8fe	0.10688971
50	0x3c3b5811	0.011434571
51	0x3c1d25d1	0.009591536
52	0x3dbf3ded	0.09337983
53	0xbdd480ce	-0.1037613
54	0xbd3d7cf6	-0.04626175
55	0x3dc97808	0.09837347
56	0xbd853df9	-0.06505961
57	0xbc31e060	-0.010856718
58	0xbdd4713c	-0.1037316
59	0x3d56f6a7	0.05248132
60	0xbda732fb	-0.08164021
61	0xbd35f129	-0.04441944
62	0xbd4a36b6	-0.049368583
63	0x3cd1cf73	0.025611615
64	0xbc01ede7	-0.0079302555
65	0xbc873cd8	-0.016508505
66	0xbd977369	-0.073950596
67	0xbdc2e352	-0.09516014
68	0xbce1a4a5	-0.027544329
69	0xbd6af4d2	-0.057362385
70	0xbd7b03d6	-0.061282955
71	0xbb4ab7d4	-0.0030932324
72	0x3db7ab56	0.089682266
73	0x3d826874	0.06367579
74	0x3e0f1587	0.13973056
75	0x3e075c05	0.13218696
76	0xbd523c9e	-0.05132734
77	0x3c96782d	0.018367851
78	0x3dd0da0e	0.10197841
79	0xbd1f1108	-0.0388346
80	0xbda515d5	-0.08060805
81	0xbc8a0a81	-0.016850712
82	0xbe050c38	-0.12992942
83	0x3d38d519	0.0451251
84	0xbd4384e4	-0.047734156
85	0x3de63a21	0.11241556
86	0xbd0489be	-0.032357924
87	0x3d37a946	0.044839166
88	0x3df65b69	0.12029154
89	0xbda7c8af	-0.08192574
90	0xbd573df0	-0.052549303
91	0xbdd0402a	-0.10168488
92	0x3d800022	0.06250025
93	0x3dbce0cf	0.09222566
94	0xbcf2d554	-0.029642738
95	0xbd9cd591	-0.07657922
96	0x3dae1379	0.08499808
97	0x3d5840d2	0.052796192
98	0xbda61c27	-0.081108384
99	0xbd5c0763	-0.053717982
100	0x3cf9044f	0.030397562
101	0x3db9d8e6	0.09074573
102	0x3d80302a	0.062591866
103	0x3db40276	0.08789532
104	0xbd8dd055	-0.06924502
105	0x3e023e50	0.12719083
106	0x3d792045	0.06082179
107	0x3d7477c0	0.059684515
108	0xbdc8dadd	-0.0980737
109	0xbd27e192	-0.040986605
110	0xbded5fe1	-0.11590553
111	0x3d6cc8a8	0.05780855
112	0x3c856403	0.01628304
113	0x3d050f45	0.032485265
114	0xbd0b7d7e	-0.034055226
115	0x3e0575c9	0.13033213
116	0xbd477177	-0.048692193
117	0x3c982bda	0.018575598
118	0x3d994053	0.07482972
119	0xbdd40d52	-0.10354103
120	0x3dbb2371	0.09137619
121	0x3d226bf6	0.03965374
122	0xbde2f7cf	-0.11082422
123	0x3decdb6b	0.11565288
124	0xbcaa3488	-0.020777002
125	0xbb41051d	-0.002945251
126	0x3d74dd66	0.059781455
127	0xbd5a3669	-0.053274546
128	0x3d8a9a30	0.0676769
129	0x3c9fc500	0.019503117
130	0xbd601cfa	-0.054715134
131	0xbcd6ff51	-0.026244791
132	0xbd8de2a3	-0.06927993
133	0x3ddd8725	0.108167924
134	0x3d20bad8	0.039240688
135	0xbdd3577e	-0.10319422
136	0x3da3a6c7	0.07990795
137	0x3e0ae891	0.1356528
138	0x3c16238c	0.0091637485
139	0x3de27b73	0.11058702
140	0x3d9eeb06	0.07759671
141	0xbd7d3d67	-0.061826136
142	0xbe0c3aca	-0.13694301
143	0xbe149821	-0.14511158
144	0xbdfc1bfa	-0.123100236
145	0xbcb58a06	-0.022160541
146	0xbd56b8cb	-0.052422326
147	0xbb840429	-0.0040288162
148	0xbd920d48	-0.071314394
149	0x3c95bc94	0.018278398
150	0xbaa30684	-0.0012437855
151	0x3ca6e75a	0.020373989
152	0xbda9cf2d	-0.08291469
153	0xbdb85348	-0.0900026
154	0xbd74ef44	-0.059798494
155	0xbdc5fb74	-0.096671015
156	0xbd71a54c	-0.05899553
157	0x3dbc7865	0.09202651
158	0x3cbd3d61	0.023100557
159	0xbdf83a3c	-0.12120482
160	0xbd40e095	-0.047089178
161	0xbd9324ba	-0.071847394
162	0xbd9aa16f	-0.07550322
163	0x3d6d88f1	0.057991926
164	0xbd978b71	-0.07399643
165	0x3e0169d2	0.12638023
166	0xbdd40aba	-0.103536084
167	0x3e0068ec	0.12540025
168	0xbe10b7f1	-0.14132668
169	0xbbf4c312	-0.0074695433
170	0xbdcd4acb	-0.10024031
171	0x3d4bae5e	0.049726836
172	0x3e0a247f	0.13490485
173	0xbdaa3cae	-0.08312355
174	0x3c4bc8e1	0.01243803
175	0xbdf6ac81	-0.12044621
176	0x3dad85b9	0.08472771
177	0x3cf9aa29	0.030476646
178	0x3df2430d	0.11829195
179	0xbe0b35ce	-0.13594744
180	0xbd58cd97	-0.05293044
181	0x3c8a1727	0.016856743
182	0x3d992f1f	0.07479691
183	0x3d14fbe2	0.036373027
184	0xbdcd883d	-0.10035751
185	0x3d81d9dd	0.06340382
186	0x3cf7a860	0.030231655
187	0x3daedb7f	0.08537959
188	0xbd139e99	-0.036039922
189	0x3db769bc	0.08955714
190	0xbd47ddac	-0.048795387
191	0xbdd62b57	-0.10457485
192	0x3d6310a0	0.055435777
193	0xbd63ac2d	-0.05558412
194	0x3d9f9aee	0.07793222
195	0xbd6973dd	-0.05699526
196	0x3dd1b445	0.10239462
197	0xbde03f1a	-0.10949536
198	0xbddb7e30	-0.10717428
199	0xbdac9782	-0.08427335
200	0x3d8eb6ca	0.06968458
201	0xbd16604c	-0.03671293
202	0xbd051bd2	-0.032497235
203	0x3da9c5a0	0.08289647
204	0xbd969a52	-0.07353653
205	0x3de1c26f	0.110234134
206	0x3d209f94	0.039214686
207	0x3d954196	0.072879
208	0xbd846080	-0.064637184
209	0xbd654b9f	-0.05598032
210	0xbd4aced9	-0.04951367
211	0xbd31a248	-0.043367654
212	0x3bbbe649	0.0057342392
213	0x3d8eaf30	0.06967008
214	0xbe086bfc	-0.13322443
215	0x3d4f543c	0.05061744
216	0xbdc6edda	-0.09713335
217	0xbdbab5bf	-0.091166966
218	0xbd8b4e07	-0.06801992
219	0x3dfec72d	0.124403335
220	0xbdd2cbe6	-0.10292797
221	0xbd52f097	-0.051498976
222	0xbd8d31fa	-0.06894298
223	0x3d7d6799	0.061866377
224	0x3e0f0c18	0.13969457
225	0xbcae14bb	-0.02125012
226	0xbccbe0b2	-0.024887417
227	0x3c7e43d9	0.015519106
228	0xbdb890e3	-0.0901201
229	0xbd930b0a	-0.0717984
230	0x3d83ef3a	0.06442113
231	0x3dbeeb9d	0.093222834
232	0x3b688d80	0.0035484731
233	0x3d565a60	0.052332282
234	0xbcf07476	-0.029352408
235	0x3d194a95	0.037424643
236	0x3dc4b2e4	0.09604433
237	0x3dcc1f62	0.09966923
238	0x3dfa2b2b	0.12215265
239	0x3c98cf1a	0.018653441
240	0x3c4feffa	0.012691492
241	0xbc13d440	-0.009022772
242	0xbcc0571c	-0.023479037
243	0x3dae2f82	0.08505155
244	0xbd15972f	-0.036521133
245	0xbc447d80	-0.011992812
246	0x3d902228	0.07037765
247	0x3da44aff	0.08022117
248	0xbc742e61	-0.014903636
249	0x3db9a7d9	0.090652175
250	0x3dff3efd	0.12463186
251	0x3df0ef95	0.11764447
252	0xbdddd145	-0.108309306
253	0x3db968ce	0.09053193
254	0x3cf77fb0	0.030212253
255	0xbc678a7e	-0.01413214

lstm.bias_hh_l0 f4 [256]
0	0x3c19f662	0.009397121
1	0x3dd27012	0.10275282
2	0x3d34fef3	0.04418845
3	0x3dcbca7c	0.0995073
4	0x3d1dbf4d	0.038512517
5	0x3e082a8a	0.13297477
6	0xbdf803fb	-0.12110134
7	0x3ca0fd19	0.019651936
8	0xbd514f7a	-0.051101185
9	0x3dc60d3f	0.09670495
10	0xbd8aa68c	-0.067700475
11	0x3c19619c	0.009361651
12	0xbd215ee8	-0.03939715
13	0x3d8e1f53	0.06939568
14	0xbd4164a7	-0.04721513
15	0x3e149cba	0.14512911
16	0xbd1a5438	-0.037677974
17	0x3d2a6300	0.04159832
18	0x3da04904	0.078264266
19	0xbddd6667	-0.10810547
20	0x3deff202	0.11716081
21	0x3ca0b1a9	0.019615965
22	0x3d96149c	0.0732815
23	0x3dc5d342	0.09659435
24	0x3dfc02e5	0.123052396
25	0xbdca7029	-0.09884674
26	0xbb896d0d	-0.004193908
27	0x3d3dd6ac	0.046347305
28	0x3d1e8316	0.038699232
29	0x3c53f2bc	0.01293629
30	0x3e0c632d	0.13709708
31	0xbdac670c	-0.08418092
32	0xbd522813	-0.05130775
33	0x3dcad1cd	0.099032976
34	0x3c3a2045	0.011360233
35	0x3d3f668b	0.046728652
36	0x3dcdab6c	0.10042462
37	0x3b59d9db	0.0033241424
38	0x3c9a8ef3	0.018866992
39	0x3ca8e82e	0.020618524
40	0xbd36fc74	-0.04467435
41	0x3db1e3aa	0.086860016
42	0x3d32057b	0.043462258
43	0xbc46daec	-0.012137156
44	0x3bc433e3	0.0059876307
45	0x3c8d8d23	0.017279213
46	0x3d95fc78	0.07323545
47	0x3d0d152d	0.034444023
48	0xbda668b0	-0.08125436
49	0xbd47a8c4	-0.04874493
50	0x3b625d61	0.0034540521
51	0xbdc71be3	-0.09722116
52	0x3d8a5a7f	0.06755542
53	0xbcfe341a	-0.031030703
54	0xbe19f37c	-0.15034288
55	0xbd5a85da	-0.053350307
56	0x3d0c4f64	0.0342554
57	0x3c8faa85	0.017537365
58	0xbd8bea82	-0.06831838
59	0x3d198685	0.037481803
60	0x3d13c5e0	0.03607738
61	0xbd3dfc4d	-0.04638319
62	0xbd9f0f9f	-0.07766651
63	0xbd41b5e1	-0.047292594
64	0xbd849f7b	-0.06475731
65	0x3dc20b4c	0.09474811
66	0x3dec1ea3	0.11529281
67	0x3d917296	0.07101934
68	0xbd81f134	-0.06344834
69	0xbc5ac1ba	-0.013351852
70	0xbdf2be2c	-0.11852679
71	0x3d9b3fde	0.07580541
72	0x3d18d241	0.03730989
73	0xbd51e2dd	-0.051241744
74	0xbd08eec3	-0.033430826
75	0x39c3cc25	0.00037345398
76	0xbdbf87dc	-0.09352085
77	0x3cc11f67	0.023574544
78	0xbd563194	-0.052293375
79	0xbcb555e3	-0.02213568
80	0xbcd44ed1	-0.025916489
81	0x3d8e1671	0.06937874
82	0xbe0faf64	-0.1403175
83	0x3c8b4ed6	0.017005365
84	0x3c977408	0.018487945
85	0xbd178771	-0.0369944
86	0xbdd5d941	-0.104418285
87	0x3df96497	0.12177389
88	0xbd944818	-0.07240313
89	0x3d99e0f3	0.07513609
90	0x3d34c79d	0.04413568
91	0x3deb4304	0.114873916
92	0xbd8bace3	-0.06820085
93	0x3da79a9b	0.081837855
94	0x3dbb5b21	0.09148241
95	0xbda76e47	-0.081753306
96	0xbd99107d	-0.07473848
97	0x3d36c2ec	0.044619486
98	0x3d0a73bb	0.033801775
99	0xbd38c0af	-0.045105632
100	0xbde198c5	-0.110154666
101	0xbc91b8c9	-0.017788308
102	0x3daa858e	0.08326255
103	0xbc742693	-0.014901775
104	0xbd6acf28	-0.057326466
105	0x3cfff83c	0.031246297
106	0x3d9bdbc8	0.07610279
107	0xbd9f3690	-0.07774079
108	0x3dc8455d	0.09778855
109	0xbe1080ab	-0.14111583
110	0xbdabee1f	-0.08395027
111	0xbc554c5d	-0.013018695
112	0xbd8f7485	-0.07004646
113	0xbdba8f04	-0.09109309
114	0x3cb8772d	0.022517765
115	0x3e09c19d	0.13452764
116	0x3c148701	0.009065391
117	0xbd29b3be	-0.04143118
118	0xbdc7a431	-0.09748114
119	0x3d99a88a	0.075028494
120	0x3e0817d7	0.13290344
121	0x3d3685be	0.04456114
122	0x3d81ddc1	0.06341124
123	0xbd996615	-0.07490174
124	0xbb551cd6	-0.0032518408
125	0x3d10ed11	0.035382334
126	0xbd7f81b1	-0.062379543
127	0x3cabc965	0.020970056
128	0x3dc11823	0.09428432
129	0xbb4ebd63	-0.0031545989
130	0x3ba866e2	0.0051392177
131	0x3d933eb8	0.07189697
132	0xbd5902eb	-0.0529813
133	0xbcfd8b73	-0.030950284
134	0xbc333e69	-0.010940173
135	0xbe01a0e8	-0.12659037
136	0x3dc36481	0.09540654
137	0x3e0a8989	0.13529028
138	0x3da77f72	0.08178605
139	0x3d849670	0.06474006
140	0x3e0c0a99	0.13675918
141	0x3c1acfaa	0.009448925
142	0xbe0aa3b2	-0.13539007
143	0xbe0ca1a3	-0.13733535
144	0x3c9f7b45	0.01946796
145	0xbdefb4c6	-0.11704402
146	0x3dbd5047	0.09243827
147	0xbddf78f7	-0.10911744
148	0x3e129f31	0.14318539
149	0x3de38a61	0.11110378
150	0x3d9b0b22	0.07570483
151	0x3e112bfd	0.14176936
152	0x3d6a1ebb	0.057158213
153	0xbdf0bb54	-0.1175448
154	0x3c4bcd3a	0.012439067
155	0xbd267d6b	-0.04064695
156	0xbd398b26	-0.045298718
157	0xbd0dcf34	-0.034621432
158	0xbdfb8611	-0.122814305
159	0xbbb6934d	-0.005571759
160	0xbdfba7e5	-0.12287883
161	0xbce73dcb	-0.028227707
162	0xbd7aebb2	-0.061259933
163	0xbd9ca1a4	-0.07648018
164	0xbcb79b0f	-0.022412805
165	0x3dcd3ab9	0.10020966
166	0xbddb09a4	-0.10695198
167	0x3dac2a3c	0.08406493
168	0xbe135f5c	-0.14391845
169	0x3dd7fdbf	0.10546445
170	0x3e061026	0.13092098
171	0xbd6b8c4e	-0.05750685
172	0xbd07243b	-0.032993536
173	0xbdb25b76	-0.08708851
174	0xbc58e51f	-0.0132382205
175	0xbd2020ca	-0.03909377
176	0x3d8f8b93	0.070090435
177	0x3d19985c	0.037498817
178	0x3d184a52	0.037180252
179	0x3b4dfeed	0.0031432465
180	0xbbddf3a8	-0.006773431
181	0x3da9ed6b	0.08297237
182	0x3db96bf1	0.09053791
183	0xbd9e0ccd	-0.07717285
184	0xbd2a3b7f	-0.041560646
185	0xbdb9df0d	-0.09075747
186	0x3da449fb	0.08021923
187	0x3dacad03	0.08431437
188	0xbcbab117	-0.022789521
189	0x3d5832ba	0.05278275
190	0xbb2e6eaf	-0.0026616266
191	0xbdadb121	-0.0848105
192	0xbdbfea10	-0.09370816
193	0x3b0515ed	0.0020307258
194	0x3e03742a	0.12837282
195	0x3dc49c1a	0.096000865
196	0x3c414d8e	0.011798276
197	0x3db60ac6	0.088887736
198	0xbdaa6818	-0.083206356
199	0x3d914c21	0.070945986
200	0xbd939b0a	-0.07207306
201	0x3d1ca723	0.03824533
202	0x3deefb9d	0.11669085
203	0xbd8f38a6	-0.06993227
204	0x3dc515c2	0.096232906
205	0xb927678b	-0.00015964934
206	0x3df6edbc	0.12057063
207	0xbdd9f59e	-0.10642551
208	0x3c474e16	0.012164613
209	0xbc2edaae	-0.0106722545
210	0x3d4fb1f6	0.050706826
211	0xbd55e714	-0.052222326
212	0x3dcaa052	0.0989386
213	0xbb818950	-0.0039531365
214	0x3c98543c	0.018594854
215	0x3d246620	0.040136456
216	0x3d34adaf	0.04411095
217	0xbde47a5d	-0.111561514
218	0x3e0955c2	0.1341162
219	0xbb8ee154	-0.0043603573
220	0x3de3f186	0.11130051
221	0x3ddf7f52	0.10912956
222	0x3d2efaec	0.042719766
223	0xbb368892	-0.0027852398
224	0xbdbab98c	-0.091174215
225	0xbd85cbbd	-0.065330006
226	0xbd25721d	-0.04039203
227	0x3dad21b8	0.08453697
228	0xbd0346fa	-0.03205011
229	0xbc9f147a	-0.019418944
230	0xbd446d9f	-0.047956105
231	0xbc0862a3	-0.008324298
232	0xbda03b6c	-0.07823834
233	0x3d238264	0.039919272
234	0xbdc8dcde	-0.09807752
235	0xbd132f55	-0.03593381
236	0xbd95942c	-0.07303652
237	0x3ca593c3	0.02021206
238	0x3dcc95e0	0.09989524
239	0xbc60d179	-0.013721817
240	0xbd0a9f19	-0.033843134
241	0xbdba12f1	-0.09085644
242	0xbc0490a7	-0.008091128
243	0x3c9d6009	0.019210832
244	0xbddd3b47	-0.10802322
245	0xbcce1f63	-0.02516145
246	0xbd544c3a	-0.051830508
247	0xbd9fee47	-0.0780912
248	0x3d55204b	0.05203275
249	0xbd117b23	-0.035517823
250	0xbc8d2629	-0.01723011
251	0xbd28e2ab	-0.041231792
252	0xbdf322df	-0.118718855
253	0xbdeb26e4	-0.11482027
254	0xbbe79f8f	-0.0070685814
255	0xbd0104c0	-0.03149867

lstm.weight_ih_l1 f4 [256, 64]
0	0x3e17e22e	0.14832374
1	0xbcd3804a	-0.025818009
2	0xbd265fec	-0.040618822
3	0x3d7358c0	0.05941081
4	0x3d876001	0.06610108
5	0xba961f00	-0.001145333
6	0xbb3db9cb	-0.0028949853
7	0x3b2369a1	0.0024934786
8	0xbca7059e	-0.02038842
9	0xbd3f3312	-0.046679564
10	0xbdd2c21e	-0.10290931
11	0xbd5934ef	-0.053028997
12	0xbc808233	-0.015687084
13	0xbde1d0b8	-0.11026138
14	0x3d4a84ca	0.049443044
15	0xbbfd6833	-0.007733369
16	0xbce57e3b	-0.028014293
17	0xbde3dcc0	-0.11126089
18	0x3b51a22a	0.0031987526
19	0xbd901077	-0.070343904
20	0xbd293bbc	-0.041316733
21	0x3c9b7db8	0.018980846
22	0x3e035c78	0.12828243
23	0x3d5bd69c	0.053671464
24	0xbd7e14a5	-0.062031407
25	0xba23676c	-0.00062333676
26	0x3d101d62	0.03518427
27	0x3dac6b46	0.08418898
28	0x3d1547f4	0.036445573
29	0x3d0e51f0	0.03474611
30	0xbd31a158	-0.04336676
31	0x3da355ee	0.07975374
32	0x3b88191e	0.004153385
33	0xbca09827	-0.019603802
34	0xbdfd3187	-0.12362962
35	0x3e0a66c9	0.13515772
36	0xbdba3682	-0.09092428
37	0xbd9d7067	-0.07687455
38	0xbd803db3	-0.06261768
39	0xbdc5a93e	-0.09651421
40	0xbd82fbd6	-0.0639569
41	0xbd2dab1a	-0.042399503
42	0xbd6fc154	-0.05853398
43	0xbd0005ff	-0.03125572
44	0xbd7c8eb4	-0.06165953
45	0xbe073f71	-0.13207795
46	0xbcdf1797	-0.027232928
47	0xbdbd11a4	-0.0923188
48	0x3dd6c9a0	0.10487676
49	0xbd5bf675	-0.053701837
50	0x3c93a5d2	0.018023405
51	0xbd1a8e24	-0.037733212
52	0x3d876948	0.06611878
53	0x3e0653a3	0.13117842
54	0xbdb5fc00	-0.08885956
55	0x3da18b9e	0.07887958
56	0xbdc6b346	-0.097021624
57	0xbdb89c3d	-0.09014175
58	0xbd5aa986	-0.053384326
59	0x3e02b51c	0.127644
60	0xbd3084e4	-0.043095484
61	0x3d50e818	0.05100259
62	0xbdb0c39c	-0.086310595
63	0xbdf919ef	-0.121631496
64	0x3bc0f3b1	0.0058884253
65	0xbdce3724	-0.10069111
66	0xbdc868e7	-0.097856335
67	0xbbfdea24	-0.007748859
68	0x3d42999d	0.04750978
69	0xbadea560	-0.0016986541
70	0x3d21d74e	0.03951197
71	0x3d9e4b97	0.07729261
72	0xbdbd6bcb	-0.092490755
73	0xbcd6b25f	-0.0262081
74	0xbde9eab0	-0.11421716
75	0xbdf07343	-0.117407344
76	0x3d9b3f8d	0.07580481
77	0xbdbfc690	-0.09364045
78	0x3bf5d2bf	0.0075019295
79	0xbd45261b	-0.048132043
80	0x3deae4da	0.11469431
81	0xbc4b530c	-0.012409937
82	0xbe0882f3	-0.13331203
83	0x3c45920d	0.012058747
84	0xbd71e905	-0.059060115
85	0xbc6357c8	-0.013875909
86	0x3d561c0b	0.052272838
87	0xbcda6961	-0.026661577
88	0xbdd30f50	-0.10305655
89	0x3d8cdf04	0.06878474
90	0xbde78256	-0.113041565
91	0xbc423174	-0.011852611
92	0x3e0c1c8e	0.13682768
93	0x3de27f3d	0.11059425
94	0xbd745eb0	-0.059660614
95	0xbb782a8f	-0.0037867164
96	0xbdaad5fa	-0.08341594
97	0x3d5a1d04	0.053250328
98	0xbdc88912	-0.09791769
99	0x3dbeb81e	0.09312461
100	0x3d48703b	0.048935156
101	0x3d2cdd58	0.042203277
102	0x3de1da88	0.1102801
103	0x3dc6270b	0.096754156
104	0xbc946572	-0.01811478
105	0x3d2a8c69	0.04163781
106	0x3d20ab5b	0.039225917
107	0xbd28a9bb	-0.041177493
108	0xbd0ffc72	-0.03515286
109	0xbd2fc2cf	-0.042910393
110	0x3d835410	0.06412518
111	0x3de8dae3	0.11369874
112	0xbdb8d2a4	-0.090245515
113	0x3d2787f6	0.040901147
114	0xbd724f89	-0.059157882
115	0x3dd02532	0.101633444
116	0xbd8a3f3f	-0.067503445
117	0xbdf6c576	-0.120493814
118	0xbd65ec76	-0.05613371
119	0x3c580083	0.013183716
120	0x3b9a95a4	0.0047175456
121	0xbdb31113	-0.08743491
122	0x3dd26912	0.10273947
123	0x3c60cddc	0.013720956
124	0x3d873d45	0.06603483
125	0xbd172863	-0.03690375
126	0x3c511553	0.012761432
127	0x3c4f5c47	0.012656278
128	0xbd55e09f	-0.05221617
129	0xbd35accf	-0.044354256
130	0xbc40ac2b	-0.011759798
131	0xbdc0b3dc	-0.094093055
132	0x3d8895ef	0.066692226
133	0xbd9cf00a	-0.07662971
134	0x3d8f376c	0.06992993
135	0x3df2b532	0.118509665
136	0xbccf11eb	-0.025277099
137	0x3daf4261	0.08557583
138	0xbe0252b7	-0.12726866
139	0xbd71d8b5	-0.05904456
140	0xbc3641ee	-0.011124117
141	0x3d07f046	0.033188127
142	0xbdbe523e	-0.0929303
143	0x3d90c7c2	0.07069351
144	0xbcabba63	-0.0209629
145	0x3dd5e1f2	0.10443486
146	0xbe06f489	-0.1317922
147	0x3e126839	0.1429757
148	0xbdc7598b	-0.09733876
149	0x3d5f56cc	0.054526135
150	0x399fae27	0.00030456597
151	0x3d87a3c9	0.066230364
152	0x3d76d326	0.06025996
153	0xbdbf2ee8	-0.093351185
154	0xbd45673e	-0.048194163
155	0xbb43b657	-0.0029863322
156	0x3dc79722	0.09745623
157	0x3d882734	0.066481024
158	0x3e1a6476	0.15077385
159	0x3d86259b	0.065501414
160	0xbd3e1601	-0.046407703
161	0x3dc36fd1	0.09542812
162	0x3d16410c	0.036683127
163	0x3d1e8849	0.03870419
164	0x3df065c5	0.11738161
165	0x3c505062	0.012714477
166	0xbb0b44ae	-0.0021250653
167	0x3d4f1a40	0.050562143
168	0xbda1c017	-0.07897966
169	0x3c6620e4	0.014045928
170	0x3d4acf3a	0.049514033
171	0x3da81563	0.08207204
172	0xbd37010d	-0.044678736
173	0xbdd32845	-0.10310415
174	0x3dbfcc4c	0.093651384
175	0x3d62ec90	0.055401385
176	0x3d93de68	0.07220155
177	0xbd7afbd1	-0.061275307
178	0x3d89b364	0.06723669
179	0x3dfd4948	0.12367493
180	0xbd225acb	-0.03963737
181	0x3d722c70	0.05912441
182	0xbd99c9ad	-0.0750917
183	0x3dd73049	0.105072565
184	0x3d9214ee	0.07132898
185	0xbd80d6e4	-0.06290987
186	0x3cb23838	0.021755323
187	0xbda2e8de	-0.07954572
188	0x3dd20bab	0.10256132
189	0x3d7e67c6	0.062110685
190	0xbe18d5b9	-0.14925279
191	0xbd3e1ae5	-0.046412367
192	0xbd8332a1	-0.06406141
193	0xbdf80f13	-0.1211225
194	0xbdb819ac	-0.089892715
195	0x3d05933e	0.032611124
196	0x3d7ebce5	0.062191863
197	0x3d8e0159	0.06933851
198	0x3e000d84	0.12505156
199	0xbcd83c92	-0.02639607
200	0x3d6a223b	0.05716155
201	0xbda9014f	-0.08252203
202	0x3d208af3	0.039195012
203	0x3dfdd0e3	0.123933576
204	0x3dc96706	0.09834103
205	0x3d11920c	0.03553967
206	0xbd1de6c0	-0.03855014
207	0xbde2d4bd	-0.11075733
208	0xbd972ca3	-0.07381561
209	0xbe1fe525	-0.15614755
210	0xbda71c4d	-0.08159695
211	0x3d8988aa	0.0671552
212	0x3d23094b	0.039803784
213	0x3cef6b87	0.029226078
214	0x3d3c48bd	0.045967806
215	0xbdd4d3c4	-0.103919536
216	0xbdffaad1	-0.124837525
217	0xbdb98822	-0.090591684
218	0x3d5319b2	0.051538177
219	0xbd9a3819	-0.07530231
220	0xbda01d35	-0.07818071
221	0xbdb213b7	-0.086951666
222	0x3b6451a0	0.0034838691
223	0x3db46989	0.08809192
224	0xbe117631	-0.14205243
225	0xbc9507f3	-0.018192267
226	0x3d74044e	0.059574418
227	0xbde65699	-0.11246986
228	0x3cc9a741	0.024615886
229	0x3d989df0	0.07451999
230	0xbb2d8c0f	-0.0026481187
231	0x3db0b4f3	0.08628263
232	0x3d4ac79f	0.04950678
233	0x3c03b2d2	0.00803824
234	0xbd912337	-0.07086795
235	0x3d19e20a	0.037569083
236	0x3c060835	0.008180668
237	0xbcd5eb77	-0.026113255
238	0xbdf17c74	-0.11791316
239	0xbe07f674	-0.13277608
240	0x3db49221	0.088169344
241	0xbc75140b	-0.014958392
242	0x3da67a66	0.081288144
243	0x3ceba8e2	0.028767053
244	0x3dd20b3e	0.102560505
245	0x3e0ea050	0.13928342
246	0xbdb5cd1b	-0.088770114
247	0x3bdc1e7c	0.006717501
248	0xbd94a6dc	-0.072583884
249	0xbdbd29b7	-0.09236472
250	0xbd9d51e4	-0.07681635
251	0x3d67357f	0.056447502
252	0x3db5ca6a	0.08876498
253	0x3dc2b4e7	0.09507161
254	0xbc8bd961	-0.017071428
255	0xbdf18098	-0.117921054

lstm.weight_hh_l1 f4 [256, 64]
0	0x3c053e79	0.00813257
1	0xbceb86b6	-0.028750759
2	0xbd6aa054	-0.057281807
3	0xbd6630ba	-0.056198813
4	0xbd276896	-0.040871225
5	0xbde8fab2	-0.11375941
6	0x3d769529	0.060200844
7	0x3d37a139	0.04483149
8	0x3de2355e	0.11045335
9	0x3d3981c7	0.04528978
10	0xbd2c2d9c	-0.042035684
11	0xbda2dcfd	-0.079523064
12	0xbd452bf4	-0.04813762
13	0x3c9c48c9	0.019077675
14	0x3dcedc36	0.10100596
15	0xbe094319	-0.13404502
16	0xbce12717	-0.02748446
17	0x3d8135c5	0.06309084
18	0xbda88963	-0.082293294
19	0x3da9c739	0.08289952
20	0xbd820129	-0.063478775
21	0xbcc945c2	-0.024569396
22	0xbdc30c2f	-0.09523808
23	0x3d8d4fea	0.06900008
24	0xbd04dc72	-0.032436796
25	0xbdc853c7	-0.09781604
26	0x3d12e182	0.035859592
27	0xbd77ac31	-0.06046695
28	0x3dc994d9	0.098428436
29	0xbdc5fe71	-0.096676715
30	0x3deda1db	0.11603137
31	0x3cd3d791	0.025859626
32	0x3d4f9f36	0.050688945
33	0xbc931706	-0.017955314
34	0x3cdfe590	0.027331144
35	0xbe06f3bd	-0.13178916
36	0x3d8dab32	0.069174185
37	0xbda1bfd5	-0.07897917
38	0x3d7903a6	0.060794495
39	0x3d836a9d	0.06416819
40	0xbb327d2e	-0.0027235257
41	0xbe051e28	-0.12999785
42	0x3dbf9741	0.09355021
43	0xbcf28ced	-0.029608214
44	0xbc167f4f	-0.009185626
45	0x3d577d11	0.052609507
46	0xbc2aaaff	-0.010416745
47	0x3d6486a5	0.05579247
48	0x3ce0d0cb	0.02744331
49	0xbdadb730	-0.08482206
50	0x3de7b438	0.11313671
51	0xbbed5b72	-0.007243567
52	0xbd25c3d6	-0.040469967
53	0x3cee071d	0.029056126
54	0xbdda5cde	-0.10662244
55	0xbde9944c	-0.114052385
56	0x3da4cf1d	0.08047316
57	0x3e05b0f9	0.13055791
58	0xbd896a61	-0.06709743
59	0xbd0d9d9a	-0.03457413
60	0xbbc36db5	-0.005964006
61	0x3c5df3cf	0.013546898
62	0xbdb39144	-0.087679416
63	0x3d96d91a	0.073656276
64	0xbcb7bbe6	-0.022428464
65	0x3dc30123	0.09521701
66	0x3d8591d3	0.065219544
67	0xbdb1433b	-0.08655401
68	0x3dd2241e	0.10260795
69	0x3d50384d	0.050834943
70	0xbd598f35	-0.05311509
71	0x3d9be9e4	0.076129705
72	0x3ca12770	0.019672126
73	0x3df7df9e	0.121031985
74	0x3df28e8f	0.11843597
75	0x3c2ec513	0.010667103
76	0xbadfaabc	-0.0017064433
77	0xbdc814fe	-0.09769629
78	0xbc66f91e	-0.01409748
79	0xbd752b47	-0.059855726
80	0xbdab5f89	-0.08367831
81	0xbdecfdc7	-0.11571842
82	0xbdef78d1	-0.11692966
83	0xbe008012	-0.12548855
84	0xbdbe6c5e	-0.09298013
85	0x3e06a682	0.13149455
86	0x3dfc9f82	0.12335111
87	0xbd876125	-0.06610326
88	0x3bb04c46	0.0053801863
89	0x3d289b2d	0.041163612
90	0xbdae412e	-0.08508526
91	0xbdae36c1	-0.08506537
92	0x3d2715d5	0.040792305
93	0x3cc339ac	0.023831211
94	0x3c8becde	0.01708072
95	0x3e046673	0.12929706
96	0xbb888485	-0.004166188
97	0x3bd2d6c7	0.006434295
98	0xbb1c135d	-0.0023815252
99	0x3d15dfa8	0.03659025
100	0xbcf8cbfe	-0.030370709
101	0x3d021ff2	0.031768747
102	0x3c916715	0.017749349
103	0xbcc46bf1	-0.023977252
104	0x3d1f6090	0.03891045
105	0xbdd8ce29	-0.10586197
106	0xbd005c45	-0.031337995
107	0xbc9498bb	-0.018139234
108	0xbb89a957	-0.004201095
109	0xbcd3521d	-0.02579599
110	0x3df18ea6	0.11794786
111	0xbd1f70fc	-0.03892611
112	0x3d692358	0.056918472
113	0x3bd8d40e	0.0066170758
114	0x3d61b0af	0.05510014
115	0xbd399b76	-0.045314275
116	0x3da05d8e	0.07830344
117	0xbb6cea8f	-0.003615055
118	0xbe06b553	-0.13155107
119	0x3ddbbe45	0.107296504
120	0xbbd8cf6a	-0.0066165226
121	0xbd5dc873	-0.05414624
122	0xbd69dde4	-0.057096377
123	0xbc8088ce	-0.015690234
124	0xbd5607bb	-0.052253466
125	0x3df83b61	0.12120701
126	0x3da6e089	0.081482954
127	0x3d8cc368	0.06873208
128	0x3d82cf84	0.06387237
129	0x3d1bd408	0.038044006
130	0xbd61adcf	-0.055097397
131	0x3c7e86da	0.015535081
132	0xbda20204	-0.07910541
133	0x3d3423b2	0.043979354
134	0x3c38871d	0.011262682
135	0x3bca8a02	0.0061810026
136	0xbca962f1	-0.020677062
137	0x3d97fad0	0.074208856
138	0xbdb9a1db	-0.090640746
139	0x3dc734e6	0.097268865
140	0xbd7dc562	-0.061955817
141	0xbcebb146	-0.028771054
142	0xbdc10ae8	-0.09425908
143	0xbd49c356	-0.049258552
144	0x3d38e677	0.045141663
145	0xbe149365	-0.14509352
146	0x3d83d63c	0.06437346
147	0x3d582774	0.052772
148	0xbd9b4c3a	-0.075828984
149	0xbd78ccfd	-0.060742367
150	0x3c875b7d	0.016523117
151	0x3dae6056	0.08514468
152	0xbe0a26e7	-0.13491403
153	0x3dceacdd	0.10091565
154	0xbcdebd21	-0.027189793
155	0xbc44d83d	-0.012014446
156	0x3c55a1cd	0.013039065
157	0x3d288cb1	0.0411498
158	0xbe1279b7	-0.14304243
159	0x3de4290e	0.11140643
160	0x3db4be7b	0.08825394
161	0x3dbb64a9	0.09150059
162	0xbc802759	-0.015643762
163	0xbd6e2cb3	-0.058148097
164	0xbdabddc5	-0.083919086
165	0x3c0a258e	0.008431805
166	0x3dcfabf1	0.10140217
167	0xbd9160e8	-0.070985615
168	0x3dbb4a46	0.09145026
169	0x3be7a79c	0.007069541
170	0xbc4da9a9	-0.012552657
171	0xbd70cb41	-0.058787588
172	0xbc4c1e2c	-0.012458365
173	0xbe0d37ad	-0.1379077
174	0xbdaf34d4	-0.08554998
175	0xbd5e9a70	-0.0543465
176	0x3dd5ce8a	0.10439785
177	0x3db8e6de	0.090284094
178	0xbda4d378	-0.08048147
179	0xbd8e0913	-0.069353245
180	0xbdc9047f	-0.09815311
181	0x3ba17db1	0.0049283137
182	0x3dbad430	0.09122503
183	0x3d792adf	0.0608319
184	0xbdb25bf2	-0.087089434
185	0xbdee670a	-0.11640747
186	0x3d8029c0	0.06257963
187	0x3df1e34d	0.11810932
188	0x3d660dfa	0.056165673
189	0xbd2ba138	-0.041901797
190	0x3da6212a	0.08111794
191	0x3d29e8c6	0.041481756
192	0xbd97f278	-0.07419294
193	0xbd988399	-0.07446975
194	0x3d3be62f	0.045873817
195	0xbbdc38aa	-0.006720622
196	0xbc821bc7	-0.015882386
197	0x3d4986fe	0.049201004
198	0xbd922062	-0.07135083
199	0x3b27b609	0.002559068
200	0x3e04c73b	0.12966625
201	0x3c96300d	0.01833346
202	0xbdc16df6	-0.094448015
203	0xbd1eb1fc	-0.038743958
204	0xbd803d30	-0.062616706
205	0x3dbea4e1	0.09308792
206	0xbc7ccdac	-0.015429895
207	0xbd71ad8e	-0.059003405
208	0x3ddd2aa5	0.107991494
209	0x3cd4ded3	0.025985157
210	0xbb62262f	-0.0034507622
211	0xbc9ae513	-0.01890806
212	0xbd805cf8	-0.062677324
213	0x3d03e007	0.03219607
214	0x3db5564f	0.08854353
215	0x3e070a2a	0.13187471
216	0x3cd762c0	0.026292205
217	0x3dc420b0	0.09576547
218	0x3ce8c19b	0.02841263
219	0x3dce2752	0.100660935
220	0xbddb786b	-0.10716327
221	0xbd98afab	-0.07455381
222	0x3dca819d	0.09888003
223	0xbc816654	-0.015795864
224	0xbd9c11a3	-0.076205514
225	0xbc6ae1f3	-0.014336097
226	0xbe0d01d6	-0.13770232
227	0xbde8f91e	-0.1137564
228	0xbd70d1b6	-0.058793746
229	0x3df514ba	0.11966844
230	0x3d8170bb	0.0632033
231	0x3d636207	0.055513408
232	0x3cfc4d4f	0.030798582
233	0x3dc58d38	0.09646076
234	0x3d7546c3	0.059881937
235	0x3dd8eb93	0.10591807
236	0x3d54e999	0.05198059
237	0x3dd4dca1	0.10393644
238	0xbe0b111c	-0.13580745
239	0xbd176913	-0.03696544
240	0xbd1c5a8e	-0.038172297
241	0x3deb100d	0.11477671
242	0x3d5ac739	0.05341265
243	0xbc2c4d56	-0.010516485
244	0xbda274c7	-0.0793243
245	0x3ca988cf	0.020695118
246	0xbb6dab19	-0.0036265312
247	0xbe048d4b	-0.12944524
248	0xbdf38a6c	-0.11891636
249	0xbb4b7932	-0.003104758
250	0x3d5d187f	0.05397844
251	0xbd8c3971	-0.068468936
252	0xbdb15746	-0.08659224
253	0xbcd87f0e	-0.026427772
254	0x3c13cbba	0.00902074
255	0x3d17e216	0.037080847

lstm.bias_ih_l1 f4 [256]
0	0xbdbe4c3e	-0.09291886
1	0x3dc52b5e	0.09627412
2	0x3ca87e2f	0.020567982
3	0xbd359f53	-0.044341397
4	0xbd677190	-0.056504786
5	0x3cd5fed8	0.026122496
6	0x3bd4c618	0.006493341
7	0xbc95d142	-0.018288258
8	0x3d6e9f94	0.058257654
9	0xbd440abb	-0.047861796
10	0x3dfb2e44	0.12264684
11	0x3dcc234e	0.09967671
12	0xbda87547	-0.08225494
13	0x3d5b05c5	0.0534723
14	0xbd9a3ee8	-0.0753153
15	0x3d66968e	0.056295924
16	0xbd3d5ab4	-0.04622908
17	0x3c3e65a9	0.011620917
18	0xbda894fc	-0.082315415
19	0xbd30211e	-0.043000333
20	0xbd043c3c	-0.032284006
21	0x3dccfebf	0.100095265
22	0xbdc9cc38	-0.09853405
23	0xbc9b83f3	-0.018983817
24	0xbd768471	-0.0601849
25	0xbcc51fcd	-0.024063015
26	0x3dfca9d6	0.12337081
27	0x3e0b5806	0.13607797
28	0xbcd59651	-0.026072653
29	0x3d188717	0.037238207
30	0x3dd1fdf3	0.10253515
31	0x3cab261f	0.020892201
32	0x3d857ca3	0.06517913
33	0xbe0d7360	-0.13813543
34	0xbd53cf02	-0.05171109
35	0x3dba2414	0.090889126
36	0xbc7aa456	-0.01529797
37	0x3dbdd0f0	0.09268367
38	0xbd86bf0f	-0.0657941
39	0x3c331a91	0.010931627
40	0x3d9b4150	0.07580817
41	0x3dd94564	0.10608938
42	0xbd207608	-0.039175063
43	0xbcfe271f	-0.031024514
44	0x3df4454d	0.119272806
45	0x3d2db5bb	0.04240964
46	0xbdf5ffd4	-0.12011686
47	0x3dfb1261	0.12259365
48	0x3de2a0d4	0.11065832
49	0x3e0ebfc1	0.13940336
50	0xbda14c5a	-0.07875891
51	0x3dbed42e	0.09317814
52	0x3cc24d09	0.023718374
53	0xbda37f1e	-0.0798323
54	0xbd9bbb22	-0.07604052
55	0xbda7dfe2	-0.08196999
56	0x3ce2216f	0.027603833
57	0x3dc909db	0.09816333
58	0x3abfb7a1	0.0014626869
59	0x3c019d45	0.007911031
60	0xbcb16772	-0.021655772
61	0x3de48460	0.11158061
62	0x3bf197a7	0.0073728147
63	0x3db7d8b0	0.08976877
64	0xbc3f1995	-0.011663814
65	0x3cc73bbb	0.024320474
66	0xbc8f2990	-0.017475873
67	0x3d3a36cf	0.045462426
68	0x3c014c2e	0.007891698
69	0xbdab6529	-0.08368904
70	0xbd8b13d0	-0.06790888
71	0xbddaa338	-0.10675663
72	0xbdb1e01b	-0.08685323
73	0xbd36d5b1	-0.044637386
74	0x3d541ed6	0.05178722
75	0x3d47be10	0.048765242
76	0x3d994bd5	0.07485167
77	0xbd80a898	-0.06282157
78	0xbdbca8b0	-0.09211862
79	0xbbd7c783	-0.006585063
80	0xbdcca66e	-0.099926814
81	0x3cfce8e9	0.030872779
82	0x3d93dd7e	0.07219981
83	0x3d859978	0.065234125
84	0xbd371c83	-0.044704925
85	0x3dc7554f	0.09733068
86	0xbd7a9109	-0.061173473
87	0xbd75ed16	-0.060040556
88	0x3bef35b8	0.007300105
89	0x3daf9fed	0.08575425
90	0x3d013f2d	0.03155439
91	0x3c525c3c	0.012839373
92	0x3d646733	0.05576248
93	0xbdc37f83	-0.09545805
94	0x3dae714e	0.08517705
95	0x3dbfa48d	0.093575574
96	0xbdeb48f2	-0.114885226
97	0xbde9bb3e	-0.11412667
98	0x3df2146a	0.118203
99	0xbe013297	-0.12616955
100	0xbd9689ba	-0.07350488
101	0x3dd43705	0.10362057
102	0xbd98990d	-0.07451067
103	0xbc56e68e	-0.013116492
104	0x3d56908c	0.052383944
105	0xbb30f178	-0.0026999395
106	0x3df0ce35	0.11758081
107	0x3d422594	0.04739912
108	0x3e0420b0	0.12903094
109	0xbd3e5d29	-0.046475563
110	0xbdaba732	-0.08381499
111	0x3e13a028	0.14416564
112	0x3dc97657	0.09837025
113	0xbdb9f2a0	-0.0907948
114	0x3d187b6f	0.03722709
115	0xbde3d8df	-0.11125349
116	0x3d59cad5	0.05317195
117	0x3d610ae2	0.05494202
118	0xbd1ec151	-0.03875858
119	0x3dda3391	0.10654367
120	0xbdbbc627	-0.09168654
121	0xbdb6008c	-0.08886823
122	0xbdfc7141	-0.12326289
123	0xbddeb68d	-0.108746625
124	0x3cf08998	0.029362485
125	0x3dee3beb	0.11632522
126	0xbcf2f78f	-0.02965906
127	0xbddf915b	-0.10916396
128	0xbdaee157	-0.08539074
129	0xbc3b2a08	-0.011423595
130	0xbdbdbd16	-0.09264581
131	0xbdba32bc	-0.09091708
132	0x3adb545a	0.0016733513
133	0xbbb172c8	-0.0054152943
134	0xbd0797ac	-0.03310363
135	0x3e0782d5	0.13233502
136	0xba33df7a	-0.00068616087
137	0xbd8b58d7	-0.06804054
138	0xbd53a252	-0.051668473
139	0x3e109705	0.1412011
140	0xbdc1efbd	-0.094695546
141	0x3d8e1360	0.06937289
142	0xbd2b5f3a	-0.041838862
143	0xbdefcf9b	-0.117095195
144	0xbcd4f105	-0.025993833
145	0x3dca56ba	0.09879823
146	0x3a478078	0.0007610391
147	0x3de7352a	0.11289437
148	0x3d815008	0.06314093
149	0x3bff05d6	0.007782678
150	0x3da89584	0.08231643
151	0xbd1c7b62	-0.038203605
152	0xbd63bbb7	-0.05559894
153	0xbda745a0	-0.08167577
154	0xbcccd0e5	-0.025001952
155	0x3d8eb273	0.0696763
156	0xbdd586ce	-0.104261026
157	0xbe1bb542	-0.15205863
158	0x3e146d4e	0.14494821
159	0xbd173322	-0.036914
160	0x3dc8681d	0.09785483
161	0xbd92b1b0	-0.071627975
162	0xbde6f0b5	-0.1127638
163	0xbe016d65	-0.12639387
164	0xbc7272a0	-0.014797837
165	0x3e09d404	0.13459784
166	0xbdcad23a	-0.09903379
167	0x3d1fe65c	0.039038047
168	0x3d45dbbc	0.04830526
169	0xbd570500	-0.052495003
170	0x3dc11191	0.09427179
171	0x3d44a2ca	0.04800681
172	0xbd9c6fb2	-0.07638492
173	0x3ccd8984	0.025089987
174	0xbdc95e63	-0.09832456
175	0x3dca6d56	0.098841354
176	0xbdb5787e	-0.08860873
177	0x3dd3c681	0.10340596
178	0xbd30a839	-0.04312918
179	0xbe19be84	-0.15014082
180	0x3cf9b8b3	0.03048358
181	0xbd9563c6	-0.07294421
182	0x3db66a9c	0.08907053
183	0x3d3a6eb6	0.04551574
184	0xbd94253a	-0.07233663
185	0xbd47eef6	-0.048811875
186	0x3ddc2ef1	0.10751141
187	0x3c21307d	0.009838221
188	0xbe05c596	-0.13063654
189	0xbd008036	-0.03137227
190	0x3ddb752c	0.10715708
191	0xbd8b2c09	-0.067955084
192	0x3e09db5a	0.13462582
193	0x3ddd70de	0.10812543
194	0x3d86331b	0.06552716
195	0xbd70fba9	-0.05883375
196	0x3dae47d7	0.08509796
197	0x3d03e50f	0.03220087
198	0xbdea3f3d	-0.11437843
199	0x3c82575b	0.015910795
200	0x3d7fbcfd	0.062436093
201	0xbd89fe23	-0.06737926
202	0xbdae982f	-0.085251205
203	0x3e14420c	0.1447832
204	0xbd47bbbf	-0.048763033
205	0xbe11a4b4	-0.14222986
206	0x3d977061	0.073944815
207	0x3dd1b35f	0.102392904
208	0x3d3f89d5	0.046762306
209	0xbd0f08d2	-0.03492052
210	0xbd119306	-0.035540603
211	0xbd7f93a2	-0.062396653
212	0x3d1586ad	0.03650539
213	0x3bd78c1d	0.006577982
214	0xbcc70333	-0.024293518
215	0xbdad7b4f	-0.08470785
216	0xbd8a6889	-0.0675822
217	0x3de0fba1	0.109854944
218	0x3d8d81ed	0.06909547
219	0x3d17b520	0.03703797
220	0xbb837b49	-0.0040124995
221	0x3dbf040c	0.09326944
222	0xbd4c0dd0	-0.04981786
223	0x3c86503d	0.016395682
224	0x3d36138c	0.044452235
225	0xbde18208	-0.110111296
226	0x3bf7f8f0	0.0075675175
227	0x3dd88f7d	0.10574243
228	0xbdc034c8	-0.09385067
229	0xbdd46a39	-0.10371823
230	0x3dbef0aa	0.09323247
231	0xbe0b5917	-0.13608204
232	0xbdcc4994	-0.099749714
233	0x3dac1b9b	0.08403703
234	0x3b06a706	0.002054633
235	0x3d4764fe	0.048680298
236	0xbd8e23a9	-0.069403954
237	0xbda54917	-0.080705814
238	0x3dd24d9b	0.10268708
239	0x3d427712	0.047476836
240	0xbd8b5096	-0.0680248
241	0xbdc07315	-0.0939695
242	0xbcb198f7	-0.021679385
243	0x3cd84ad2	0.026402865
244	0xbdfa67c5	-0.12226824
245	0x3c0ccb60	0.00859341
246	0xbcfa8629	-0.03058155
247	0xbd1824d5	-0.0371445
248	0xbd40c9d2	-0.04706747
249	0xbd9767af	-0.07392823
250	0xbd69474b	-0.056952756
251	0xbd98490d	-0.07435808
252	0xbdf4576c	-0.11930737
253	0x3d102fa5	0.035201687
254	0xbdd682d1	-0.1047417
255	0xbdcc13de	-0.09964727
